CNN_NMIST/NN_MNIST.pth (torch, 134855 bytes, 10 tensors)

conv1.weight f4 [6, 1, 5, 5]
000000 39 b9 79 3e 6b dc 02 bd 0b 2a 51 3e 30 4a 12 3d
       0.24387063 -0.03194849 0.20426194 0.035715282
000010 8e 60 15 3d a5 bd 4c be 94 d0 69 bd 63 5a 4f 3c
       0.036469035 -0.19994219 -0.05708368 0.012655827
000020 2b e5 86 3d 51 db 49 bd ff 84 23 bf 47 f5 90 3c
       0.06586679 -0.049281422 -0.6387481 0.017695082
000030 c3 06 96 3e 25 88 49 3d 77 6d 6d 3e 3c 36 af be
       0.29302034 0.049202103 0.23186289 -0.34221065
000040 ac b5 df 3e e9 5c d8 3e 7b fe 82 3c 73 e7 14 be
       0.43693292 0.42258385 0.015990486 -0.14541416
000050 66 ff 96 3d 52 85 a5 3e 6c 83 a7 3d 7c 1b 7d be
       0.07372932 0.32328278 0.081793636 -0.24717516
000060 28 a7 3d be 5e fe f7 bc ad 48 b1 3e 7a 9a 36 3e
       -0.18520796 -0.030272659 0.3462576 0.17832366
000070 fa 9c b6 be d1 28 62 bf de e2 ea be 74 06 dd 3e
       -0.3566664 -0.8834353 -0.4587621 0.43168986
000080 48 b2 62 3f b8 01 93 3e 27 27 ac be c6 b7 10 bf
       0.88553286 0.2871225 -0.3362362 -0.56530416
000090 ef d3 03 be 6b c9 2c 3f 5a cf d6 3e 83 68 31 3e
       -0.12873815 0.6749484 0.41955072 0.17325024
0000a0 0b e6 0a bf 89 a5 a1 be 37 bc 56 3c e2 40 0f 3f
       -0.5425727 -0.31571606 0.013106397 0.5595838
0000b0 4f 08 8d 3e 16 52 cc be 45 3c 95 be c8 36 8c 3d
       0.275454 -0.39906377 -0.29147545 0.06846386
0000c0 59 dd df 3e fe e2 4f 3e 61 22 8a 3e 00 42 e7 3e
       0.43723562 0.20301434 0.26979354 0.45167542
0000d0 8f 49 ac 3e b8 6e d6 3e 35 31 b0 3d b7 bf 0f 3f
       0.3364987 0.41881347 0.086031355 0.5615191
0000e0 2d f5 25 3f 24 03 ca 3e 43 69 47 3e a8 d1 75 3e
       0.64827234 0.3945552 0.19473748 0.24005759
0000f0 a1 a6 75 bd 52 24 85 be 2d a8 bd bd 01 24 d3 bd
       -0.059973363 -0.26004273 -0.092605926 -0.103096016
000100 41 ad bd bd af 82 df be d6 3c 3d bf 8c 23 1b bf
       -0.09261561 -0.4365439 -0.73920953 -0.60601115
000110 b5 36 1e bf ab 55 65 be a7 02 16 bf 82 99 d5 be
       -0.61802226 -0.22395961 -0.585978 -0.4171868
000120 e6 76 3e be 3e e2 37 be ba 98 65 be da c3 03 be
       -0.18600044 -0.17957398 -0.22421542 -0.1286768
000130 1e bf bb 3e 3e 69 32 3e f1 11 a3 3e 68 ae a7 be
       0.36669248 0.17422959 0.31849626 -0.3275025
000140 ea 38 2f 3e c7 05 13 3f 10 b9 47 3e e4 79 58 b9
       0.17111555 0.5743069 0.1950419 -0.00020644773
000150 56 59 10 bf c0 4d b3 3e 21 4f 04 3f 12 09 1c 3e
       -0.56386316 0.35020256 0.5168324 0.15237835
000160 24 f3 17 bf 76 6a ef be 00 96 0c 3e 4c dd 8f 3e
       -0.5935538 -0.4676091 0.13729095 0.28098524
000170 c5 3c 10 be cf 27 1e bf ff bb 33 bf 6b 51 b3 3e
       -0.14085682 -0.61779493 -0.70208734 0.35023054
000180 84 69 88 3e 31 58 f0 bc 2d 3c 1a be 1e 48 11 3d
       0.26643002 -0.029338928 -0.15062018 0.035469167
000190 12 ac 83 bd dc fb 97 3e 9c 02 7c 3d 8d 2e 5e be
       -0.06429304 0.2968434 0.061525926 -0.21697445
0001a0 39 82 3f be 2b 26 35 bf 85 6d 75 bf 55 c7 7c bf
       -0.1870202 -0.70761365 -0.9587024 -0.98741657
0001b0 bf 24 db be e9 dd a7 bd 08 bb ac be e0 fb 39 bf
       -0.42801473 -0.08196623 -0.33736444 -0.72649956
0001c0 80 6a c9 be b2 7f 9f 3c c0 c2 69 3e da 23 cb 3e
       -0.39339066 0.01947007 0.22828197 0.3967579
0001d0 9b 17 c6 3e cf 37 f1 3e 53 f2 00 3f 76 ef 1f 3e
       0.38689885 0.4711289 0.5036976 0.15618691
0001e0 7d 04 23 3f c8 da 1d 3f e1 d5 c4 3e a2 a7 6e bb
       0.63678724 0.6166196 0.38444427 -0.0036415835
0001f0 21 24 6b be e1 9a c7 3e 2c 67 7e 3e af 93 43 3f
       -0.22963001 0.3898535 0.24844044 0.7639722
000200 d1 e6 f9 3e 43 83 33 be 50 5a 3f be 7f b3 1a be
       0.4880891 -0.17530541 -0.18686795 -0.15107535
000210 8d 24 a3 3e 28 94 0a 3f 46 07 33 3e 17 27 c9 be
       0.31863824 0.5413232 0.17483243 -0.39287636
000220 65 d1 69 bf 05 7c 30 bf db 35 a8 bb 1e a7 14 3e
       -0.91335136 -0.6893924 -0.005133373 0.14516875
000230 a5 f4 af be 6d a4 1a bf 59 d3 28 bf 9e fc 03 be
       -0.34366336 -0.60407144 -0.6594749 -0.12889335
000240 da 0a d8 3d be 25 b1 3e 81 60 89 3e 2a 5f 1e 3e
       0.10548945 0.34599108 0.2683144 0.1546599
000250 23 bd 8c be 5c e6 53 be
       -0.2748805 -0.20693344

conv1.bias f4 [6]
000000 d1 06 d1 be 02 82 a8 be e5 91 08 3e 74 cb f5 bc
       -0.40825513 -0.32911688 0.13336904 -0.03000424
000010 3b 41 29 3e 56 26 67 bc
       0.1652879 -0.014108261

conv2.weight f4 [12, 6, 5, 5]
000000 27 fd 21 be bf 9f 1b be 8b f8 12 3d f7 17 d0 3b
       -0.15819226 -0.15197657 0.03588156 0.006350513
000010 11 83 39 bd ba 0f 30 bd 24 25 4a 3e 42 f6 39 3e
       -0.04529101 -0.042983748 0.1974073 0.18160346
000020 3b 0a 25 be 92 8c 5c 3e 9e 48 8c 3d 6a 14 cf 3d
       -0.16117184 0.21537998 0.06849788 0.101113155
000030 fd cc 7a be 42 55 26 3e 8c 13 90 3e ce 31 8c 3e
       -0.2449226 0.16243461 0.28139913 0.27381748
000040 a4 be 2d 3e 8b ac 19 be d0 20 07 be c9 4f 92 bc
       0.16967255 -0.15007226 -0.1319611 -0.01786031
000050 3b ff 14 bc cb b3 20 bd 94 0b 1e be 40 10 ad 3a
       -0.009094055 -0.039233964 -0.15434104 0.0013203695
000060 78 46 d5 bd 4e ae fd 3e 3e ab a8 3e 78 2c b4 bd
       -0.104138315 0.49547046 0.32943147 -0.08797544
000070 14 e6 d3 bd b2 41 53 3e 9c 66 36 3f ae fe 5a 3f
       -0.10346618 0.2063053 0.7125032 0.8554486
000080 dc c2 90 be 50 cd 93 3d ad 9e fd 3c d7 cc 94 3e
       -0.28273666 0.072168946 0.030959452 0.2906253
000090 23 20 38 3f 50 8e 81 3d 4d b6 18 bf 17 47 c1 bc
       0.71924037 0.06325972 -0.5965317 -0.023593469
0000a0 ec 70 9c be b4 bc 82 3e d7 fe 67 3e 23 15 ae be
       -0.30554903 0.25534594 0.22655807 -0.340005
0000b0 62 29 c0 3c eb 2c a6 bd 5b f4 bd be 3c 86 80 3d
       0.023457233 -0.08114036 -0.3710049 0.06275603
0000c0 e4 69 c6 bd e4 8e 52 be 26 f1 e8 ba 92 c8 df be
       -0.09688166 -0.20562321 -0.0017772063 -0.4370771
0000d0 d1 4e 6d be c2 0c 3a 3e 00 d3 cd 3d b1 74 6c bc
       -0.23174597 0.18168929 0.10050011 -0.014432118
0000e0 be 8a 55 bf f0 be d9 be a8 95 c3 3c 83 de fc bd
       -0.8341483 -0.42528486 0.023875073 -0.12347128
0000f0 27 d8 3c be 91 d7 fa be 99 f9 57 bf e1 7e 24 bf
       -0.1844183 -0.4899259 -0.8436523 -0.642561
000100 93 f8 0e 3e 45 73 c9 bd 7a 0f 2c 3e a3 8d f5 3d
       0.13962011 -0.09836439 0.16802779 0.11989906
000110 81 d1 76 3e 27 8a 99 3e 7f ca 96 3e 71 0d 8e 3e
       0.24103357 0.29988214 0.29451367 0.2774463
000120 b6 0b 2e 3d 05 5a 7a 3e a2 ae 00 3e 15 81 c9 3e
       0.042491637 0.24448402 0.12566617 0.39356294
000130 2f 01 4a 3e fe 87 3a be 48 f2 f6 bd ce 80 ba bc
       0.19727014 -0.1821594 -0.1205793 -0.022766497
000140 23 98 94 3d b2 7b 1c 3e df ec bd 3e 94 1c 49 be
       0.0725558 0.15281561 0.3709478 -0.19639808
000150 6c 01 c4 3c ce 31 87 be 48 c3 64 bd d1 6a 28 3c
       0.02392646 -0.26405185 -0.055850297 0.010279373
000160 e8 a2 5b be c5 a6 2e 3d c8 f4 82 bd 07 28 9e be
       -0.21448863 0.042639513 -0.063943446 -0.30889913
000170 4e d0 5e bd e6 54 40 bd 9f 0d 5b 3e 1e 36 bf bc
       -0.054397874 -0.046955965 0.21391915 -0.023341235
000180 0e f5 54 be 7c 55 f4 bd 5b dc c6 bd 38 85 44 be
       -0.20796606 -0.11930367 -0.09709998 -0.19191444
000190 66 54 3d be 03 78 7d 3e 0d 38 b6 3e 1b 1a 64 3e
       -0.18489227 0.24752812 0.35589638 0.22275583
0001a0 5b fa 85 3e 2b 55 2c be 9b 69 c8 be 9d ca 7f bc
       0.2616757 -0.16829364 -0.3914307 -0.015612272
0001b0 06 15 eb 3d 92 8d bb 3c 3b c4 c4 be 1a 8c 14 bf
       0.11478619 0.022894654 -0.38430962 -0.5802628
0001c0 76 e1 59 be 9b 7c 8e 3e 43 93 32 3e dc af 51 3e
       -0.21277413 0.2782944 0.17438988 0.20477241
0001d0 68 4e 17 bf 98 ee 51 bf be 1a 87 3d 7f 97 ff 3d
       -0.59104013 -0.8200469 0.065968975 0.124800675
0001e0 9e 4e de bd 68 71 c9 be 8e 16 bf be 18 ac 50 be
       -0.10854839 -0.39344335 -0.37321895 -0.20378149
0001f0 6d 50 00 be a6 ff 23 be b8 9a f1 be af b6 d7 be
       -0.1253068 -0.16015491 -0.47188354 -0.42131564
000200 73 64 0a be b2 cd 02 be 3e 6c f7 3e d6 1f 04 bf
       -0.13514881 -0.12773779 0.4832477 -0.5161108
000210 64 42 6d be 8d 59 80 3e ae 75 10 3d 4b 3c 03 3e
       -0.23169857 0.25068322 0.035268478 0.12815969
000220 8f 22 28 3c 65 d2 b1 bf 91 b2 29 bf ee 8c ad be
       0.010262146 -1.3892332 -0.66288096 -0.33896583
000230 44 84 48 bd f6 12 8a 3e 3c 61 0a 3e ee ce 3c 3e
       -0.048954263 0.2696759 0.13513654 0.18438312
000240 42 e7 41 3e 6a 19 31 bd 03 dc 89 3c 41 c6 68 3e
       0.18935874 -0.043237127 0.016828543 0.22731878
000250 3f 4f 90 3e 4f d1 42 bd 6d 46 ed 3d 53 c1 27 3e
       0.2818546 -0.047562893 0.11585698 0.16382341
000260 cc 22 21 be 6b 74 0d bf 89 e3 7a be 35 75 46 3e
       -0.1573593 -0.55255765 -0.2450086 0.19380648
000270 e4 14 0a 3d 82 b6 23 be be 42 46 be 2e ae d6 be
       0.03371133 -0.1598759 -0.19361398 -0.41929764
000280 aa 06 0e 3f 3b 59 60 3d fc a3 94 be 3b 23 16 bf
       0.5547892 0.054772597 -0.2903136 -0.5864751
000290 91 05 e1 be 90 7d 16 3f bc 6a 92 3e af 6b be 3d
       -0.4394956 0.58785343 0.28597057 0.09297883
0002a0 29 e2 56 3e e8 8c 5f 3d 31 fb af 3e be 5c 4f 3e
       0.20984711 0.054577738 0.3437133 0.20250222
0002b0 ff 5e 83 3e 1c b8 6f 3e 41 91 8a 3d 00 30 de be
       0.25658414 0.23410076 0.06765986 -0.43395996
0002c0 d2 4d 91 be 95 de 44 bf 60 fb d7 be dd 51 6f be
       -0.28379685 -0.76902133 -0.4218397 -0.23371072
0002d0 18 52 13 3e 72 6d 7f bb 62 66 35 bf 8f df 74 bf
       0.14386785 -0.0038975147 -0.7085935 -0.95653623
0002e0 a1 e2 09 bf 67 4a 56 3e 4d d2 bc 3e d5 f1 01 3f
       -0.53861433 0.2092682 0.36879197 0.5075963
0002f0 16 c3 b7 3e 20 3e 72 be 16 76 9a 3e fe b8 4e be
       0.35891026 -0.23656511 0.30168217 -0.20187756
000300 dd 10 8b 3e 55 29 14 3f 14 cc 87 3e d3 38 95 3e
       0.27161303 0.5787557 0.26522887 0.29144916
000310 fe 68 68 be ba d1 68 be a7 9c a5 3c af 5c 41 bc
       -0.22696301 -0.22736254 0.0202163 -0.011801883
000320 48 8c 0f be fe b8 87 bc ce 91 58 3e 7f 83 8e 3e
       -0.14018357 -0.016567703 0.2114937 0.278347
000330 4e 81 a6 3d 37 a4 d5 bd 32 9c df be 01 b0 91 bf
       0.08130132 -0.10431712 -0.43673855 -1.1381837
000340 f8 c4 32 bf 26 cc aa bd e6 87 ed 3e 28 2f af 3e
       -0.698318 -0.083397195 0.46392745 0.34215665
000350 82 5b e8 3d 6d f0 08 be e5 33 6b be f7 60 6e bc
       0.11345579 -0.13372965 -0.22969015 -0.014549485
000360 ff a9 94 3e b5 c0 83 3e 5a 3b 31 bd 12 6a e0 be
       0.29035947 0.2573296 -0.043269493 -0.43830925
000370 19 88 b3 bd a8 b6 6b 3c b2 a7 16 bd 4e 73 39 bd
       -0.08766193 0.01438681 -0.03678102 -0.04527598
000380 71 91 e4 bd 46 81 81 3d 9d ea 4c 3e 9e 8f ba 3d
       -0.11160553 0.06323485 0.20011373 0.09109424
000390 09 9e ba bd b9 ef 4a be 18 3a 9c be 89 1c cb bd
       -0.09112174 -0.1981801 -0.30513072 -0.09917552
0003a0 d8 91 39 be 27 b2 a6 be 83 de 82 be 81 0f 9f bd
       -0.18122041 -0.32557794 -0.25560388 -0.07766629
0003b0 57 5b e3 be fe 9b 13 be e0 a9 7b bd 24 98 b3 3d
       -0.44405624 -0.14414975 -0.061441302 0.08769253
0003c0 c8 0a 89 bd b5 ed aa be f1 76 50 be 63 5b 4e 3d
       -0.066915095 -0.3338448 -0.20357873 0.050380122
0003d0 d9 d6 e0 3d 7e c7 40 3e 06 4d ad bd 27 5f a8 bc
       0.10978479 0.188261 -0.08461957 -0.020553185
0003e0 0f d7 2c 3e ca 33 a6 3e de e3 d9 3e a7 5c 83 bc
       0.16878913 0.32461387 0.4255666 -0.016035391
0003f0 06 11 32 be 59 cf d8 be e0 56 c4 be a6 39 1a 3f
       -0.17389306 -0.42345694 -0.3834753 0.60244215

conv2.bias f4 [12]
000000 7b d2 3e be 62 37 b8 be a2 39 1d bb 24 68 1f 3c
       -0.1863498 -0.35979754 -0.002399065 0.009729419
000010 39 c1 29 be 36 7c 82 be 96 c8 74 3d f5 6c 55 3e
       -0.16577615 -0.2548539 0.059761606 0.20842345
000020 e3 62 83 be 5a 89 5e bd 97 7f 88 3d 7a 0a a8 be
       -0.25661382 -0.054330207 0.06664961 -0.32820493

fc1.weight f4 [120, 192]
000000 f1 e0 4a bd ec e8 27 bd e1 d2 b3 bd ad 6b 07 3d
       -0.049530927 -0.040993616 -0.08780456 0.033061672
000010 1a a6 09 3d f5 e3 4f 3c d5 92 85 bd 1a 7e 0d 3c
       0.033605672 0.012688627 -0.065221466 0.008636022
000020 24 40 6c 3d a8 b2 8a 3d b4 08 18 bd 16 ac 67 bc
       0.057678357 0.06772357 -0.037117675 -0.01414015
000030 96 6e 2e 3d 1a 91 89 3d ab 0c 3d 3d 7d 7d c4 bc
       0.04258593 0.06717129 0.04615466 -0.023985619
000040 15 c2 8f bc cf e8 ec 3c 9c 56 bc bd 0c e3 49 bd
       -0.0175486 0.028919606 -0.09196207 -0.049288794
000050 9c 53 d6 bc 47 00 ca 3c 2c b0 7b bd 7e 69 55 3d
       -0.026162915 0.024658335 -0.061447307 0.05210256
000060 54 c3 0c bd 08 6f 69 bc 2a b8 88 bd d8 10 92 3c
       -0.034365967 -0.014247663 -0.066757515 0.017830297
000070 0d f7 57 bd f3 73 a4 3c 59 7f 2e bd 20 7a 09 bd
       -0.05272584 0.02007482 -0.042601917 -0.033563733
000080 e1 d6 de bc 80 14 99 bc 53 ce 02 bd 78 6b 56 bd
       -0.027202072 -0.018686533 -0.031935047 -0.052348584
000090 93 94 36 bd b8 59 a4 3c e8 d7 60 bd 98 04 8f bb
       -0.044575285 0.020062312 -0.054893404 -0.0043645613
0000a0 ed 18 e5 3c 8c 79 af 3b 21 42 b3 3c d2 09 aa bd
       0.027965987 0.0053550657 0.021882119 -0.08302654
0000b0 96 7a 1a bd d8 ab 1a bd 90 a3 b6 3b 5b ac d9 3c
       -0.037714563 -0.03776154 0.0055736974 0.026571443
0000c0 4a 9f 80 bd fb b2 32 bd 46 02 61 3c d5 62 60 bb
       -0.06280382 -0.04362772 0.013733452 -0.0034238596
0000d0 38 a5 83 bd 7b c4 8d bd da 0e b0 bd 34 97 99 bb
       -0.06427997 -0.06922241 -0.08596583 -0.0046872143
0000e0 87 18 8a 3a 34 9a 77 3d 71 d8 da 3b 8f 8e 5c bd
       0.0010535874 0.060449794 0.006678634 -0.053846892
0000f0 68 a5 d1 bc 5b 81 ca 3c e5 6f 4c 3d e1 6c 9a bd
       -0.025591567 0.024719885 0.0499114 -0.07540298
000100 46 72 a6 bc 33 56 a5 3c 15 27 b1 bd f1 a4 0e 3d
       -0.020318162 0.020182705 -0.086500324 0.03482527
000110 e6 30 34 bd 05 89 15 bd 9e 0e 1b bd 16 39 9b bd
       -0.043991946 -0.036507625 -0.037855737 -0.07579248
000120 b7 6a f0 bc a6 b5 88 3c 69 1f 8e bc cf de 53 bd
       -0.02934776 0.01668818 -0.017348962 -0.05172616
000130 bd 96 70 bc eb ca 06 bd 92 d1 33 bd 50 67 00 3d
       -0.014684376 -0.03290836 -0.043901034 0.031348526
000140 ac 16 cc bc fd 51 81 bd f2 0c 61 bc e6 51 b2 3c
       -0.024913155 -0.06314466 -0.013735997 0.021767568
000150 11 80 46 3c 78 64 84 3d 1c 57 ba bd 83 6a 41 3c
       0.012115494 0.064644754 -0.09098646 0.0118051795
000160 7f bb 65 bd 08 4a ae 3c b6 9b 43 3b 9c 57 06 3d
       -0.056087013 0.021275535 0.002984745 0.032798395
000170 ca 20 68 bd c4 ac 95 3c e8 17 08 bd 51 72 11 3d
       -0.056671895 0.018270858 -0.033225924 0.03550941
000180 ed a3 cd bc 06 b1 25 bd 43 ad bc bc b6 77 7e 3c
       -0.02510258 -0.040452026 -0.023031836 0.015531471
000190 a9 b4 33 bd e3 19 d2 3c 70 0d 8d bd 0b 3e dd bc
       -0.043873463 0.02564711 -0.068873286 -0.027007123
0001a0 76 55 f5 bc 50 fa 73 3c fd 5e 0e 3d 14 8e 2c 3d
       -0.029947978 0.014891222 0.034758557 0.042127684
0001b0 48 25 68 3c e3 fe 8b bd 86 fb e8 3b 97 51 41 3d
       0.014169045 -0.06835725 0.007110062 0.04719695
0001c0 66 0a 9d bd 89 53 01 3d 5e b8 0a bd b4 e0 2a 3d
       -0.07667999 0.031573806 -0.033867233 0.0417182
0001d0 18 ff fc 3c fc f5 0b bc f4 6e 90 bd 3b ef 0e 3d
       0.030883357 -0.008542534 -0.07052413 0.034896117
0001e0 da 8f 5c bd 5c bc cc 3c 55 20 af 3c c7 ab e4 3c
       -0.053848125 0.02499216 0.021377722 0.027913941
0001f0 b4 9a d3 3b ef c4 c7 3c 7a e6 4d 3d 38 17 8d bc
       0.006457651 0.024385897 0.050268628 -0.017222986
000200 02 52 1d 3d 99 f1 15 bd cb 35 fe bb 2e 9a b1 bd
       0.038408287 -0.03660736 -0.0077578775 -0.086719856
000210 84 b2 3e 3d f0 a2 2d bc b2 e6 bd bc 5c 92 b8 bd
       0.046556965 -0.010597929 -0.023181293 -0.09012291
000220 87 75 92 bd 10 f6 b4 bd 55 9a 8e bc f7 28 34 3d
       -0.07151323 -0.08835995 -0.017407576 0.04398438
000230 da a7 2f bd 41 09 ae 3c fe 02 db bc 31 be 43 bd
       -0.042884685 0.021244647 -0.026734825 -0.047788803
000240 8a 73 3d bd 00 34 ff bc bf 2c 32 3b 31 9f 56 bd
       -0.046252765 -0.031152725 0.0027187315 -0.05239791
000250 cb d2 bb bd 8b 7a d2 3b 96 b7 8d 3c d3 e9 ab 3c
       -0.09171065 0.0064232997 0.017299455 0.02098552
000260 9f 03 94 bd 4e 76 53 bd a6 b4 17 bd ab 5c 71 bc
       -0.07227253 -0.051626496 -0.037037514 -0.014731566
000270 d9 5e 9a bb dc 00 3e bd 51 9a d4 3c 22 f9 0f 3d
       -0.0047110138 -0.04638754 0.02595249 0.0351497
000280 99 eb 75 bd e2 9f 26 bd 86 f3 7b bd 94 28 44 3c
       -0.060039137 -0.04067982 -0.06151154 0.011972565
000290 bb 49 3c 3d 33 d0 dd bc b6 74 d9 3c 99 11 94 bc
       0.045968752 -0.027076816 0.02654491 -0.018074797
0002a0 87 df 53 bc ee 1e 51 3d f4 82 2f 3c 3a cc 08 bd
       -0.012931711 0.051054887 0.010712374 -0.03339789
0002b0 ff cc 10 bd 53 f9 46 3d 92 a6 2f bd 3a be 5d bd
       -0.03535175 0.048577618 -0.042883463 -0.054136492
0002c0 31 7f 77 bd 8c 1f de ba 7f 84 92 bd b4 05 50 bc
       -0.060424034 -0.0016946658 -0.07154178 -0.012696672
0002d0 00 69 cb 3c 1f 20 25 3d b4 23 43 bd f8 10 d5 bc
       0.024830341 0.040313836 -0.04764147 -0.026009068
0002e0 95 c3 90 3c 21 52 ad bd 84 b2 47 bd 0a 62 3b 3c
       0.017671386 -0.084629305 -0.04875423 0.011436949
0002f0 b0 3b 84 bd 6c f0 ab bd 8d 12 a2 bd ff f5 fc 3c
       -0.06456697 -0.08395466 -0.079136945 0.030879019
000300 78 ef c5 bd ff 54 44 bd 71 9c 46 3e 16 7e cb be
       -0.09664816 -0.04793262 0.19395615 -0.39744633
000310 7a d4 91 3e 1a 46 05 3e 9d cb 74 bc a6 98 ad be
       0.2848242 0.13015023 -0.014941123 -0.33905524
000320 86 40 d9 bd 0a e8 15 3e fd 2d a0 3d f4 71 3c bd
       -0.1060801 0.14639297 0.078212716 -0.04600711
000330 4f 95 52 3e 1f a4 32 3d bf 62 a6 3e 11 dd bf 3e
       0.20564769 0.04361355 0.32497212 0.37473348
000340 56 c5 27 3d 54 c5 4a 3a f2 8c 3a bd ef 61 7a 3e
       0.04095968 0.00077350927 -0.045544572 0.24451421
000350 e3 c8 ca 3d b2 f7 e1 bd 8e e4 8f be 41 6a 1d bb
       0.09901597 -0.11033572 -0.2810406 -0.002401963
000360 5d fe fd 3e 9d 98 d1 3e e2 1b c7 bb b1 7d 9d bd
       0.49608126 0.40936747 -0.006076322 -0.07689989
000370 c0 bc c5 be 9c d6 88 3c c8 99 42 3e ce 61 36 3e
       -0.38620567 0.016703896 0.19003975 0.17810747
000380 f8 ae 84 3e 9e 3d f2 bd 44 23 b8 be 63 b3 16 bd
       0.2591474 -0.11828159 -0.35964406 -0.03679217
000390 42 b6 a6 be cc 0a 84 be 4b bd b0 3d ee f1 45 3e
       -0.32560927 -0.25789487 0.08629855 0.1933057
0003a0 f7 9f 22 3f 39 06 c0 3e 9e c1 2e 3e 79 6f 34 be
       0.63525337 0.37504748 0.17066047 -0.17620648
0003b0 07 c4 5c be 31 a7 f6 be 6d 95 a7 be 0b 79 89 be
       -0.21559153 -0.48174432 -0.3273119 -0.2685016
0003c0 04 30 34 3d 7b 9f 35 bc 08 89 18 bf 55 af d6 3d
       0.043991104 -0.011085386 -0.59584093 0.10482661
0003d0 dd 15 4e be cc d7 11 3d 4d f3 c0 be 01 9a 4e 3d
       -0.20125528 0.03560619 -0.37685624 0.05043984
0003e0 68 50 83 3e 4b 1f 9e 3e 1e dd 28 be d8 e7 0c 3c
       0.25647283 0.3088325 -0.164906 0.008600198
0003f0 0d 81 eb bb 2d 1c 4c 3e fa 25 7e be 20 98 1f 3e
       -0.007187015 0.19932623 -0.24819174 0.15585375

fc1.bias f4 [120]
000000 c1 e4 78 bc 8c 83 bd 3d ab 4f 4c 3c c9 08 94 bd
       -0.015191258 0.09253606 0.012470166 -0.07228238
000010 8b c2 55 3d d8 d6 e6 bc a5 c1 80 3e ef c3 50 bb
       0.052187484 -0.028178617 0.2514774 -0.0031855067
000020 4b b0 89 bd aa da 1f 3c 81 3c 3b bd 7c 23 d9 3d
       -0.06723078 0.009756723 -0.045711998 0.10602471
000030 be 26 bc 3d eb 81 98 bd 46 1d 09 be b3 0f 18 3c
       0.09187077 -0.07446655 -0.13390073 0.009281087
000040 60 0d 53 3b 8f 57 89 bd 6c 2b c1 bc 10 0f f8 bd
       0.0032204017 -0.067061536 -0.023580275 -0.12112248
000050 d7 66 86 bc 3a a3 b0 bd cd 4a 3c bc dc 27 9f 3d
       -0.01640646 -0.08624883 -0.011492443 0.077712744
000060 42 3f 6d bd c3 c6 d7 3c 6b c8 b4 bd 40 b6 68 3c
       -0.057921655 0.026339894 -0.08827289 0.014203608
000070 b1 03 46 bd c7 87 ac bd 99 59 51 bd 01 d2 2b bd
       -0.048343364 -0.08424335 -0.051110838 -0.041948322
000080 2b de b0 bd 11 34 c5 bb d4 20 9b bd fc 78 b9 3d
       -0.08636125 -0.0060181697 -0.07574621 0.09056279
000090 60 e5 f0 bd 14 f0 94 3d eb 2a 8a bc da c0 b4 bd
       -0.117625 0.07272354 -0.016866168 -0.08825846
0000a0 8e 5a e3 bd 69 ae c5 bd e3 7f 9b bd ae d5 d0 ba
       -0.11101256 -0.09652407 -0.07592752 -0.0015932822
0000b0 f1 de 06 be b8 4f b1 3d 93 23 77 bb 3a 4f 6c be
       -0.13170983 0.08657783 -0.0037710413 -0.23077098
0000c0 77 c9 f9 bd a5 5b fe bd ce 86 50 bd f5 c6 ef bc
       -0.121966295 -0.124198236 -0.05090981 -0.029269675
0000d0 b7 be c2 3d be 34 ae bc 46 e0 98 3b fd 5e e4 3b
       0.09509032 -0.021265384 0.0046654074 0.0069693313
0000e0 a1 f4 0e be d9 27 96 bc 27 ed 2f bd 5e 7b 3b be
       -0.13960506 -0.018329548 -0.042950775 -0.1830878
0000f0 e6 93 ca 3c 4b 54 f8 3d 6d 33 08 bd a7 6e e5 bd
       0.024728727 0.121254526 -0.03325217 -0.11202746
000100 97 59 42 be e4 d8 78 3b a2 10 76 3c 47 d2 18 bd
       -0.18979488 0.0037971074 0.015018614 -0.03730991
000110 1b 67 1f 3d 6b a9 ac 3d a9 6c 9e bd 97 1e 2e 3d
       0.03891669 0.084307514 -0.07735569 0.04250964
000120 8d b7 bc bd 14 76 0d 3d 39 ef 08 3e 05 94 42 bd
       -0.09214697 0.034536436 0.13372506 -0.047504444
000130 41 fb 29 3e 08 b6 5c bd a5 9e 65 bd 20 96 de bb
       0.16599752 -0.053884536 -0.0560595 -0.0067927986
000140 d6 9b a2 bd 90 11 89 bd 50 87 1d be 3e d1 6c 3d
       -0.079398796 -0.06692803 -0.15383649 0.057816736
000150 0a 40 94 3c 33 c4 7b bd 2b f8 c1 3c b4 72 6f bc
       0.018096942 -0.061466407 0.023677906 -0.01461475
000160 61 bc 87 3e 38 16 dd bd 56 0a 76 3b 08 61 d1 bc
       0.2651091 -0.107952535 0.0037542782 -0.025558963
000170 1a 2c d9 bd 22 dd 3d 3e 04 4f c8 3b f7 45 06 be
       -0.10604115 0.18541387 0.006112935 -0.13112627
000180 ce dd 00 be 84 49 ec 3c 22 81 01 be 89 50 93 3d
       -0.12584612 0.028843649 -0.12646917 0.07193095
000190 ae da 37 bd 82 54 47 bd a7 e4 a5 bd 2f bd 1f be
       -0.044886284 -0.048664577 -0.081002526 -0.15599512
0001a0 99 cd 10 3d f7 a1 7b bd b1 34 75 bd ab 6a de bd
       0.035352323 -0.06143376 -0.059864704 -0.10860189
0001b0 3d c0 00 3e b5 a6 bb bc 41 31 03 be bb eb 51 bd
       0.12573333 -0.02290664 -0.12811758 -0.0512502
0001c0 de aa 84 3c 4d 22 d3 bc fa 99 ae bd 7f 7e 9d bc
       0.016194757 -0.025773192 -0.085254624 -0.019225357
0001d0 9b 9e a1 3d 9e cf 01 3d c2 da bb b9 fb 62 8f bd
       0.0789158 0.03169214 -0.00035830407 -0.07001301

fc2.weight f4 [60, 120]
000000 64 8b a6 bd b7 95 72 3e d8 d8 ab 3d 55 dc ba be
       -0.081320554 0.23689924 0.08390969 -0.36496225
000010 8f 89 ad 3e 4a fb e8 bd 03 02 da 3e db 17 2a 3e
       0.3389401 -0.113760546 0.4257966 0.16610663
000020 b3 e5 81 3e d9 c1 17 bf b9 ed 42 3d 71 43 be bd
       0.2537056 -0.59280163 0.04758999 -0.09290207
000030 23 98 bf be b1 28 5b 3d bc 3f 38 be 4e cd 0d 3e
       -0.3742076 0.053505603 -0.17993063 0.13847849
000040 44 5d 95 3d b3 00 bc bd 8a ac 8c 3d 1a 47 27 3e
       0.0729318 -0.09179821 0.06868847 0.16335717
000050 c9 03 ed bd 67 3f c3 bd b1 a3 44 3e 05 c9 0e 3d
       -0.115729876 -0.095335774 0.19203068 0.034859676
000060 70 a3 e9 bd 2c 96 39 bd 88 67 41 bc 09 e6 05 bf
       -0.11408126 -0.04530923 -0.011804469 -0.5230413
000070 be 95 8c 3e 14 67 a9 3e bd 37 f4 3e dc cb b9 3c
       0.27457994 0.33086455 0.47698775 0.022680216
000080 09 48 91 bd 94 45 7b bc 65 d7 76 bc 85 08 88 be
       -0.07093818 -0.015336413 -0.0150660025 -0.26569
000090 bc ad 74 3e aa 3e 3a be 39 3e 98 bd 60 18 31 3d
       0.238944 -0.18187967 -0.07433743 0.043236136
0000a0 d3 b9 85 bd f2 4e 8e 3e be 5f 86 be ef 63 01 3f
       -0.06529584 0.27794605 -0.2624492 0.5054311
0000b0 3e 64 48 bd cf 69 f2 be 57 25 90 3d fa 44 14 bf
       -0.048923723 -0.4734635 0.07038372 -0.5791775
0000c0 69 4b 88 3e f6 fc 77 3e 4c 3e 30 3d 0f 68 81 bc
       0.26620033 0.2421759 0.04302816 -0.01579669
0000d0 f5 cf dd 3e e2 40 7f 3e f1 dd 49 3d 60 04 35 bb
       0.4332272 0.24927095 0.049283925 -0.0027621016
0000e0 31 a1 14 3e 44 38 d9 3c c1 c8 8d 3e 62 49 10 be
       0.14514615 0.026516087 0.27692226 -0.14090493
0000f0 67 ef 7a be b8 b5 24 bd c8 87 ec 3d 2e 87 4b 3e
       -0.24505387 -0.040212363 0.11549336 0.19875786
000100 60 52 fd 3d e7 a8 c8 bc 3a cc 53 bc d3 85 a6 bd
       0.123692274 -0.024494601 -0.012927109 -0.08130994
000110 27 0b a1 be 73 0a 9f be 4e a6 85 3c ca 0e c9 3d
       -0.3145382 -0.3106266 0.016314652 0.09817274
000120 2b f0 ce 3e 1c b3 75 3e 84 1e 3c bf 8f 6b 41 bf
       0.4041761 0.23994106 -0.73484063 -0.75554746
000130 80 b3 f3 be bc e4 c1 bc ca ee 6a be 68 62 96 3e
       -0.47597885 -0.02366864 -0.22942653 0.29371953
000140 c6 26 e4 3d e8 c9 eb bc da 8a 0a bf fc 57 fd 3e
       0.11140208 -0.0287828 -0.5411812 0.4948119
000150 e6 96 86 bd 22 de 75 3d 4f 7f 8a 3e a4 8b 09 3d
       -0.0657175 0.060026295 0.27050254 0.033580437
000160 c7 ab c2 3e bb aa 84 bd 28 f3 b9 3c 20 cb 9e be
       0.3802168 -0.06477877 0.022698954 -0.31014347
000170 5a 64 25 bf 00 ef 88 be d0 66 d3 bb 8f 39 5e 3e
       -0.6460625 -0.26744843 -0.006451465 0.21701644
000180 78 fd 42 3e e7 41 99 be 36 84 09 3e 36 db e6 bd
       0.19042003 -0.29933092 0.1342934 -0.1127228
000190 ea 61 60 3d 79 d9 a3 3c 07 4e 83 3c 82 49 5b 3e
       0.054780878 0.02000116 0.016028417 0.2141476
0001a0 71 72 01 3f 04 15 2d 3e 07 2f ab 3d 63 b2 0c 3f
       0.5056525 0.16902548 0.08358579 0.54959697
0001b0 c7 8e e6 bc 9d f6 a7 3e 46 53 f2 3d fd ff ad bc
       -0.028144253 0.32805339 0.118322894 -0.021240229
0001c0 8e a1 8f bd f0 92 91 3d e6 40 80 3d 7e dd 03 3e
       -0.07013236 0.07108104 0.062623784 0.12877461
0001d0 ad 72 57 3e ca da ff 3c 4a 5b 30 3e 1e 3c b9 bd
       0.21039839 0.031232256 0.17222324 -0.090446696
0001e0 b4 cb 3b 3d ee f7 b3 bd e9 7d 97 bd 3a 6a 41 3e
       0.045848563 -0.08787523 -0.07397062 0.18888178
0001f0 84 5a 14 bd 06 7e 00 3e 6e 65 d7 bd 48 b5 35 bd
       -0.036219135 0.12548074 -0.10517393 -0.044362336
000200 21 c9 e4 3d bb 4b d2 be 16 d1 9d 3d d2 be 04 be
       0.11171175 -0.41073403 0.077058956 -0.12963417
000210 8d 83 ab be eb 32 0c 3e 76 36 c1 bd e0 54 75 be
       -0.33498803 0.13691299 -0.09434216 -0.23958158
000220 9d 33 13 3e 31 58 7d 3e 70 3e 85 bb 5b b7 7a 3e
       0.14375158 0.24740674 -0.004066281 0.24484007
000230 48 0b 91 3e 49 84 05 3e 3f 4e 90 3e 1e 11 dd bd
       0.2832892 0.13038744 0.28184697 -0.107942805
000240 02 46 91 3d ee f1 a2 3d 9f 17 85 bd 8f fd de bc
       0.07093431 0.07956301 -0.06498646 -0.027220516
000250 f2 12 07 3f 29 07 4c be 40 be 2d be 86 f4 8e 3e
       0.52763283 -0.19924606 -0.16967106 0.27920932
000260 6f 3b 49 3e 5e 50 a4 3d 7c 9a 62 bd 5e ff 66 be
       0.19651578 0.08023141 -0.05532311 -0.22558352
000270 a4 4d 44 be da d0 cc 3e 5d f1 9a be 0f 43 b5 bd
       -0.19170243 0.4000309 -0.3026227 -0.08850681
000280 a2 0f 2b bd 61 06 ac 3e c5 9a 2f be e4 99 7d 3a
       -0.041762955 0.33598617 -0.17148884 0.00096741156
000290 5f f6 a2 be 90 9f 7a be 38 e3 b9 3e 65 56 f8 3e
       -0.3182859 -0.24474931 0.36306167 0.48503414
0002a0 a2 96 73 3e a8 ae c9 3e 8f 49 72 3c 73 3f 6e be
       0.2378793 0.39391065 0.014788046 -0.23266391
0002b0 d7 32 ab 3e fc 40 c6 3e 6e 20 81 bb 4e 9b 9f 3a
       0.33437225 0.38721454 -0.0039406335 0.0012177022
0002c0 ad e0 20 bd 53 a8 c4 3d ae 4c 22 bf f0 a4 a0 3e
       -0.039276768 0.09602418 -0.63398254 0.31375837
0002d0 0b c0 a8 be 49 f3 8a bc 53 f2 df be 36 1f f1 3e
       -0.32959017 -0.01696171 -0.43739566 0.47094125
0002e0 b7 42 b7 3e 8f 82 97 bd c8 ed 92 bc c0 06 4b bb
       0.35793087 -0.07397949 -0.017935649 -0.0030979365
0002f0 18 dd 1f be 91 28 65 3d 39 f9 88 3d 4b 3d bc 3d
       -0.15611684 0.05594689 0.066881604 0.09191378
000300 cc d4 f2 3d d5 b2 3f bf 9c 64 1c bf 16 f6 e0 bd
       0.11856994 -0.7488225 -0.6109102 -0.10984437
000310 ec fd bd be e9 bc 1b 3e bf 2d e3 3d 63 aa 65 3e
       -0.3710779 0.15208782 0.1109271 0.22428279
000320 7b 03 49 3e 18 5c 3e bc b6 f7 9b 3c f1 22 3c 3e
       0.19630234 -0.011618637 0.019039016 0.18372704
000330 68 81 09 3e d8 98 9b bd 8d 25 ec 3e 52 a5 ca 3c
       0.13428271 -0.07597512 0.461224 0.024737034
000340 3d 78 90 bd 1c ae 35 3e 80 7e a1 3d f3 4c a1 3e
       -0.07054184 0.17742199 0.07885456 0.3150402
000350 99 17 4c be fc d3 cd bd 89 bf 2d bd 1b 7f e8 3e
       -0.19930877 -0.100501984 -0.04241899 0.45409474
000360 48 37 36 be 6c 1b 98 3e 18 7b 0c 3d 26 b1 bc be
       -0.17794526 0.2970842 0.03429708 -0.36853904
000370 6f c8 f6 3c b2 6e b2 bd f1 55 e9 3e aa 11 60 3e
       0.030124871 -0.0871252 0.4557338 0.21881738
000380 87 73 0b 3e 9f fc 06 3e fa d4 e6 ba e6 3e ef bd
       0.13618289 0.13182305 -0.0017611079 -0.11681919
000390 ea f1 ce bd 37 65 45 be 09 af 10 3f 05 23 8c bd
       -0.10104735 -0.19276892 0.5651708 -0.06842617
0003a0 59 cb d4 3d b9 4a 8f 3d db d0 3b bd 1a a7 e4 be
       0.10390348 0.06996674 -0.045853477 -0.44658738
0003b0 48 bf 55 be f1 ca 29 3c b1 19 c0 be 37 3a b3 3d
       -0.2087375 0.010363326 -0.375196 0.08751338
0003c0 eb 54 cb 3c 46 5f ae 3e ba 0f e4 3c d7 99 0a 3f
       0.024820765 0.34057063 0.02783953 0.5414099
0003d0 30 ce b7 3c 79 55 dd be d2 a9 9e 3d 3d b3 b1 3e
       0.022437185 -0.43229273 0.077472344 0.3470706
0003e0 b6 20 9f 3e c0 ce 91 be 57 0c 82 bd ef d4 68 bd
       0.31079644 -0.2847805 -0.0635001 -0.056843694
0003f0 f7 e0 3a 3d 86 75 2f 3d 77 7b b9 be ac 66 8d 3e
       0.0456247 0.04283669 -0.3622701 0.27617395

fc2.bias f4 [60]
000000 88 ef 2f be 0c 50 b8 bd 1d df 3d bd 67 61 96 3e
       -0.17181218 -0.08999643 -0.046355356 0.29371187
000010 7c 08 b5 bd 97 93 91 3e 7a 67 94 3e fd 93 9d bd
       -0.08839509 0.28432915 0.28985196 -0.07694242
000020 7a 7b 7f 3e 8d af 4c be 1a 4f 83 bd 1d c8 18 be
       0.24949446 -0.19988842 -0.06411572 -0.14920087
000030 40 2a b2 be 2a 89 03 be 05 be 02 be f5 5c d5 bd
       -0.3479786 -0.12845293 -0.12767799 -0.10418121
000040 ee 3e 9f bd 4e c5 87 bd 4d f2 ba bc 25 6c 13 bd
       -0.07775675 -0.0662943 -0.022820616 -0.035991807
000050 90 3f 05 3f 91 7d 59 bd c3 8a 15 be 38 da 9c 3d
       0.52050114 -0.053098265 -0.14603715 0.076588094
000060 1a a5 43 3e 31 7f 46 be 66 f7 81 bc ba 2c b3 bd
       0.1910595 -0.19384457 -0.01586504 -0.08748765
000070 43 be 01 bd 2b 47 39 3e 64 24 d2 bd 51 e4 67 3e
       -0.03167559 0.18093555 -0.10260847 0.2264569
000080 a0 37 49 bd e4 05 88 bd 28 a3 cb 3e e2 9a fe bd
       -0.049125314 -0.066417485 0.39772916 -0.12431885
000090 6d 64 0e be c9 56 4c bd a0 ed 02 3f 5b 31 06 3e
       -0.13905497 -0.049887452 0.51143837 0.13104765
0000a0 65 44 31 3e 72 4a 24 be f4 a9 c3 3e b1 44 1d be
       0.17311247 -0.16044024 0.382156 -0.15358235
0000b0 f5 ce f0 bd 5b 85 17 3e 0b f0 bb 3d c5 29 e3 3d
       -0.11758224 0.14796965 0.09176644 0.11091951
0000c0 ec e5 45 3e 85 e7 d9 3e 3e f5 99 bd 2f 50 91 3c
       0.1932599 0.42559448 -0.07517479 0.01773843
0000d0 f4 33 8f 3e 30 b6 78 3e 5b 47 dd bd 49 4a 73 be
       0.27969325 0.24288249 -0.108046256 -0.23758806
0000e0 96 e5 30 be 3f e9 5c 3d b4 c9 0e be 78 aa 05 3d
       -0.1727508 0.05393338 -0.13944131 0.032633275

out.weight f4 [10, 60]
000000 df e6 07 be 7c 37 32 3e f8 2e de be 6b 33 d2 bd
       -0.13271664 0.17403978 -0.4339521 -0.102637134
000010 5b 79 68 bd 4f d3 c7 3c be 72 bb be 30 ee ca 3e
       -0.05675636 0.024392752 -0.3661098 0.39634848
000020 f9 28 37 3e 5a fe a0 3e 70 4e 71 3e 47 7d f6 be
       0.17886724 0.31444055 0.23565078 -0.48142454
000030 7b 84 a6 3e 55 a4 27 3d d4 69 ae 3d b0 fc f4 be
       0.3252295 0.040928204 0.08516279 -0.47849035
000040 52 ae 6b 3d f6 d4 bb be 4e ae e2 bb 4f b8 f1 3e
       0.05753929 -0.36685914 -0.0069177514 0.4721093
000050 7e 1d 2c 3e 99 d7 3f be 6c 13 93 be c5 dc e4 bd
       0.16808125 -0.18734588 -0.28725755 -0.11174921
000060 58 b9 2c bf 33 40 b9 bb ae 65 ef bd b5 12 4a be
       -0.6747031 -0.005653405 -0.11689316 -0.19733699
000070 63 76 a7 3d fb 3f b3 be f9 31 b5 3c a9 5b fd bd
       0.08176877 -0.3500975 0.022118555 -0.123709984
000080 29 39 27 3e ed e6 28 3e de 6d 46 be 4b 2b 1f 3d
       0.16330399 0.16494341 -0.19377849 0.038859647
000090 85 bb 03 bc 4f 9c fa 3d ec cd 5c be af 8c 09 bf
       -0.008040314 0.12236845 -0.21562928 -0.5373029
0000a0 8c 19 81 bd d6 09 20 3e f1 c1 3e bd 2b 73 54 3e
       -0.06303701 0.15628752 -0.046571676 0.20747058
0000b0 6a 14 40 3e 09 1c 4c 3e 25 7e 3c be 25 d0 9f 3c
       0.18757787 0.1993257 -0.18407495 0.01950843
0000c0 24 b0 0c bf a2 0c ac 3d 25 fe 0b bc 5d 45 b5 bd
       -0.5495627 0.08400847 -0.0085444795 -0.088511206
0000d0 ad de 35 3e bc d4 b9 bd 40 9d 9d 3b 16 b1 95 3d
       0.17760725 -0.09073779 0.0048100054 0.07309167
0000e0 32 25 13 bf fc 0d c7 3d 9e c0 03 be e5 7f 97 3d
       -0.5747863 0.09719464 -0.12866446 0.07397441
0000f0 74 b2 d2 3e c3 c8 09 bf 37 4a 99 3e 1e 4e 91 3d
       0.41151774 -0.53821963 0.29939434 0.07094978
000100 90 f3 d2 3e 51 e2 cb be 69 16 06 be fb 16 2f bd
       0.41201448 -0.39821103 -0.13094486 -0.042746525
000110 75 db 23 bf e6 7b 59 3e 20 e8 7f be 48 83 bd be
       -0.6400674 0.2123867 -0.24990892 -0.37014222
000120 77 c9 be be 4c a5 35 be b9 2e 84 3e 20 72 fd be
       -0.3726308 -0.17738837 0.25816897 -0.49501133
000130 a1 6c 2d bd bc df 9f 3e f6 64 0f 3e 96 a1 2e 3b
       -0.042339925 0.31225383 0.14003357 0.0026646606
000140 ea fe 7d 3e db a8 e0 3d 07 aa df bd 8f c8 b4 be
       0.24804273 0.109697066 -0.10921102 -0.35309264
000150 1d 78 aa be 5d 1d 99 3c 68 39 a6 bd 5d 51 8f be
       -0.33294764 0.01869076 -0.08116418 -0.27991763
000160 e6 c2 0a 3d 10 1a 12 be 34 19 84 bd 05 6b 3d 3e
       0.033877276 -0.14267755 -0.064501196 0.18497856
000170 30 dd 7c be 55 99 59 3e e4 27 8f be 72 94 cb bc
       -0.24693751 0.21249898 -0.27960122 -0.024851058
000180 63 cb 35 bd a8 28 0d bd 61 c7 09 bf e0 40 cb 3e
       -0.044383418 -0.0344626 -0.53819853 0.39697933
000190 83 99 a2 3e 28 aa 8f 3d 3f 63 af 3c 4c 7a 36 3e
       0.31757745 0.070148766 0.021409629 0.1782009
0001a0 89 03 be be e2 d7 59 3e 70 19 98 3e bd f8 6b be
       -0.37112072 0.21273759 0.29706907 -0.23044105
0001b0 8e a0 59 bd 6d 37 98 be ed ab 95 3d 63 9c b5 be
       -0.053131633 -0.29729787 0.07308183 -0.35470876
0001c0 0c 6d 2d 3d 29 26 c0 3d c4 e4 e6 be ed 30 c2 bd
       0.042340323 0.093822785 -0.4509641 -0.09481988
0001d0 9e a2 c1 3e fe 31 22 be 0b d1 bd bd cc 97 16 bf
       0.3781938 -0.15839383 -0.092683874 -0.58825374
0001e0 64 e7 ed be 50 3f ea 3e 84 8e ba 3e 7d 33 19 3e
       -0.464656 0.4575143 0.36436856 0.14961047
0001f0 5e b4 9d 3e 21 db 5b be 5f fa dc be b9 9e 06 bf
       0.30801672 -0.2147031 -0.43159768 -0.5258594
000200 c1 bc 90 be fc 4a 6d bd e4 ca 03 bf 14 be f5 3d
       -0.28269008 -0.05793284 -0.5148146 0.11999145
000210 76 ca de be a7 ec 8d bd 72 17 ca be 68 9f 91 bb
       -0.4351384 -0.069299035 -0.39471012 -0.0044440515
000220 7b 15 9e 3d c9 94 b2 be b1 8b 3d 3e 49 6f 78 3e
       0.07718941 -0.3487914 0.1851032 0.24261202
000230 d6 51 92 be f7 87 98 3e 3e 69 a3 3e c9 ba 91 3e
       -0.2857806 0.29791233 0.3191623 0.28462818
000240 4f 66 d8 be 42 f5 62 3c 5f 95 01 3e 0a 5a 22 bf
       -0.42265555 0.013852419 0.12654637 -0.6341864
000250 9d fe d8 be 85 8f 4b be f9 50 d5 bc 90 2e f5 3d
       -0.42381755 -0.19878967 -0.026039587 0.11971772
000260 84 7b 43 be 5f 2a ac 3d 15 31 d3 3e 1e d2 00 3e
       -0.19090086 0.08406519 0.41248384 0.12580153
000270 85 70 33 bd 44 09 f5 bd 9a e1 39 be 91 14 95 be
       -0.04380848 -0.11964658 -0.18152466 -0.29117253
000280 c7 5e 19 bf 94 de db be 7b 66 3e bd 02 54 f2 3e
       -0.59910244 -0.4294325 -0.04648445 0.47329718
000290 a7 9f a4 3e 56 2f 5f bd f0 42 45 3d 46 8a 4b 3d
       0.32153055 -0.054488502 0.04815954 0.049692415
0002a0 82 63 c9 be 4a b1 11 3e bb 59 e2 bd 06 04 ce bc
       -0.3933373 0.14227787 -0.11052271 -0.025148403
0002b0 7d e0 ad 3d 75 9f 50 3e d1 95 db be 2c a2 4a 3c
       0.08490083 0.20373328 -0.42887738 0.012367766
0002c0 91 5e 18 bd a8 4f 0f 3e 52 ed 70 3b c5 33 9f 3e
       -0.03719956 0.1399523 0.0036762548 0.31094185
0002d0 24 c2 03 be 95 b4 ca bc bd 10 82 bc 05 be f4 be
       -0.12867028 -0.024744311 -0.015877122 -0.47801223
0002e0 ce c2 d1 be d4 3c 7c 3e 22 74 80 3e 88 0a 94 bd
       -0.40968937 0.24632579 0.25088602 -0.07228571
0002f0 7b 93 a7 3e 73 69 89 3e 52 1f 93 be 0a de 2c 3d
       0.32729706 0.26838264 -0.28734833 0.04220394
000300 8a 96 28 be 5f cd a6 bc 61 93 a2 be 14 79 46 be
       -0.16463676 -0.0203616 -0.31753066 -0.19382125
000310 2e 99 17 3e 84 b1 9a 3e d1 04 91 3e 89 1c cb be
       0.14804527 0.3021356 0.28323987 -0.39670208
000320 84 76 19 bf ef 22 b5 bd f9 ab 34 3e e1 a8 d7 be
       -0.59946465 -0.08844554 0.17643727 -0.42121032
000330 86 8f 4e 3a 7f 58 63 bd 70 91 4d 3c 9a 69 cb 3d
       0.0007879663 -0.05550432 0.012546882 0.09932251
000340 60 af 02 bf b9 16 10 bf 7e 05 a5 3e 9b a9 05 bf
       -0.5104885 -0.5628467 0.32230753 -0.5221192
000350 35 6e 99 3c 6a af fa be cc 73 93 be d3 e3 2b bd
       0.018729309 -0.48961955 -0.28799284 -0.041965317
000360 0c e2 0f 3e 72 ad 32 bd 7d 62 4e 3e 34 89 c4 be
       0.14051074 -0.04362244 0.20154758 -0.38385928
000370 6a 7f 29 be 44 8a 93 3e 2f e3 d7 be 5c 10 e2 be
       -0.16552511 0.28816426 -0.42165515 -0.44153106
000380 c4 10 e0 3b 7f 2a 09 3e 2a 0e 74 3e 9b 6e 49 be
       0.006837936 0.13395117 0.23833528 -0.19671099
000390 76 47 99 3e 90 12 59 be c3 eb 99 3d e4 48 21 bd
       0.29937333 -0.21198487 0.07515671 -0.039376155
0003a0 46 1a 83 3e 73 5a 0b 3e 8a 73 16 bf 79 52 8d be
       0.25605983 0.13608722 -0.5877005 -0.27601984
0003b0 3e 52 ca 3d 0d 54 0b be e6 f3 b3 bd 80 1d 07 3e
       0.09878968 -0.13606282 -0.08786754 0.13194847
0003c0 e6 91 a8 bd 10 29 25 bd e0 3f af be 4c 38 a9 3e
       -0.08230953 -0.040322363 -0.3422842 0.33050764
0003d0 07 fc c9 be 06 7e 4d 3e fb 61 ca be ec a4 bf 3d
       -0.39450094 0.20067605 -0.39527878 0.09357628
0003e0 8e 14 46 bf b4 6b 37 bf 7d 3b 4e bb fe 44 65 3e
       -0.77375114 -0.71648717 -0.0031468563 0.223896
0003f0 8a 58 40 be 1a 67 bb 3d 4e 01 99 3e 38 8a c3 3e
       -0.18783775 0.091505244 0.29883808 0.3819139

out.bias f4 [10]
000000 90 13 70 be ce ff 9d bd 5c 05 8f be 7b b6 db 3d
       -0.23444963 -0.077148065 -0.27933776 0.10728165
000010 b0 6e 48 be 91 1a 94 bd 9b 3d 5e be 05 51 e6 bd
       -0.19573474 -0.0723163 -0.21703188 -0.11245922
000020 3d 94 01 3f ca 33 39 bd
       0.5061682 -0.045215406
