CNN_NMIST/NN_MNIST.pth (torch, 134919 bytes, 10 tensors)

conv1.weight f4 [6, 1, 5, 5]
00000000: 89f1 97be 351f ad3c 19e6 803e dc20 123e
00000010: 0550 a73e 8edc 81be 2e50 4a3e c8e0 b63e
00000020: 94a2 013f 6dce ce3d a40f 85be 890b b73e
00000030: a56c 233f 1cbf 633e fb70 d63d be90 1f3e
00000040: 3770 073f 739d 123f c378 d43e 0beb 07bb
00000050: 7f11 573e 3111 663e 6d32 c63d 48d6 113e
00000060: 8678 84bd d188 883a b980 b13e 824c b23c
00000070: ca5d 8d3e 0850 80be b58f 1d3d f463 603e
00000080: bf4d 293e e80e 5d3d ae30 8dbe 3a85 083e
00000090: 31fa c33e 468b 203f c5c7 383d 62ee 6dbe
000000a0: 4338 a73d 843b 033f 1cf1 513f 6017 143f
000000b0: 2688 cd3d 4118 f7bd 557f a83e 26f9 3c3e
000000c0: 922a f53e 2563 663e afde 4b3e 5935 b03e
000000d0: 837d ef3e 0e65 cc3e 2f26 983e e2b7 b33e
000000e0: 8acd 063f 3e00 8d3e a07e e73e 74ff 643e
000000f0: ed5c 8abd 089a a4bd 1bb4 e13b eceb 973e
00000100: fe47 523e dbeb ccbe 90aa bfbd a029 8ebc
00000110: 87d5 8a3d 8261 8e3e bf5c febe 2355 e1be
00000120: 6f0a c4be d5a6 a73c 933d 87bd e6c8 5dbe
00000130: 2df7 cebe 51fc cbbd 9129 64be cffe 8dbe
00000140: 89f0 bbbc be24 96be 78f8 25bf fe08 c4be
00000150: 8b96 a9be 1630 403e 31d2 dcbd f173 0bbe
00000160: be52 423e 1b5b 003e 4e79 353e c862 053f
00000170: 4884 023f 4797 093e 4427 653e 3f9c d73e
00000180: 2beb 933e cc18 a93e 2ac7 c43e 2821 853e
00000190: 12d6 243d 7b25 82be d2ed 1abe 4026 a63d
000001a0: 737a a43e 4a17 a33d c54f 0f3e 6962 cebc
000001b0: 2e21 d73d 5c56 003f 882d 3fbe 45bc 803e
000001c0: 8fbf d83e cd31 323f c300 f83e 4d87 26be
000001d0: 9f8d 843e 2618 203f 33bc 123f e855 b63e
000001e0: 84c1 a0bb d75f ad3e 3be1 d03e 0c70 053f
000001f0: 8df3 7b3e 3e8f 273e 99d9 023d 992c 8fbe
00000200: 32d9 babb 80d5 9dbe 3469 533e ff84 bd3e
00000210: b018 c63e 98bd f43c f0b1 a63e c3b3 013f
00000220: 9af6 4d3f d12e 223f 20cf df3e c5ec 743e
00000230: 5f7d 403d f748 463e d98e 0b3e 4e55 033f
00000240: d414 bd3e 3b34 a9bc f090 2dbe 94e8 aabe
00000250: 0fa9 2d3b 11a6 2c3e
-0.29676464 0.021133045 0.2517555 0.14270347 0.32678238 -0.25363582 0.19757149 0.3571837
0.506387 0.10097966 -0.25988495 0.35750988 0.63837653 0.22240871 0.10470768 0.15582559
0.529056 0.572715 0.41498384 -0.0020739462 0.21002768 0.22467496 0.09677587 0.14241898
-0.064683005 0.0010416751 0.3466852 0.021764997 0.27610618 -0.2506106 0.038467128 0.21913129
0.16533564 0.053969294 -0.27576202 0.13332072 0.38276818 0.62712514 0.04511239 -0.23235467
0.08165028 0.5126269 0.8200853 0.5784817 0.10035734 -0.12065173 0.32909647 0.18454418
0.4788404 0.22498758 0.19909166 0.344157 0.46775445 0.3992085 0.29716632 0.3510123
0.5265738 0.27539247 0.45213795 0.22363073 -0.067560054 -0.08037192 0.0068879253 0.29672182
0.20535275 -0.40023693 -0.09358704 -0.017353833 0.06779008 0.27808768 -0.49680135 -0.44010267
-0.3828921 0.020465294 -0.06603541 -0.21658668 -0.40422955 -0.09960235 -0.22281481 -0.27733466
-0.022941845 -0.29324907 -0.6483226 -0.3828811 -0.33122668 0.18768343 -0.10782278 -0.13618447
0.18976876 0.12534754 0.17722055 0.52103853 0.50983095 0.13436614 0.2237826 0.42111394
0.28890356 0.3302673 0.384332 0.2600186 0.040243216 -0.2541922 -0.15129784 0.08112764
0.3212467 0.079634264 0.13995273 -0.02519341 0.105043754 0.50131774 -0.18669713 0.25143638
0.42333648 0.6960724 0.4843808 -0.1626255 0.25889298 0.6253685 0.5731842 0.35612416
-0.0049058814 0.33862182 0.40796837 0.52124095 0.24604626 0.16363236 0.0319458 -0.27963713
-0.005702161 -0.3082695 0.206456 0.3701553 0.3869071 0.029875562 0.3255763 0.5066492
0.8045441 0.63352686 0.4371271 0.23918445 0.046994563 0.19363771 0.13628711 0.5130204
0.36929953 -0.020654788 -0.1694982 -0.33380568 0.0026498472 0.16860224

conv1.bias f4 [6]
00000000: be20 3139 c911 15ba e5db cebb 943b 6b3c
00000010: ae8d 2439 021f cf39
0.00016892233 -0.0005686549 -0.0063128346 0.014357466 0.00015693039 0.0003950522

conv2.weight f4 [12, 6, 5, 5]
00000000: 4929 823d 36c0 c5bc 18c9 91bd 95ed f73d
00000010: 12ca 3c3d 2169 63bd 4b1c 32be 0262 583e
00000020: 9506 0a3e 30b8 27be 3137 07be 24d8 eb3d
00000030: 277a 7f3e eb24 013e 6e81 e1bd f9fa 973c
00000040: d0de d53d 5375 133e 6f73 65bd 977b 993d
00000050: 7635 9b3d 0621 6e3d f679 933d e01a 52bd
00000060: 8654 13bd 9a94 b9bd 8f25 1cbe bafa ab3d
00000070: 1187 2b3e 0748 b7bc cc4b f8bd 2397 bdbd
00000080: 7ded 1b3e 063e 0e3e 5511 16be 26e9 33bd
00000090: e054 3cbd 3b23 0a3e 59f0 133e 7771 ccbd
000000a0: a72d dabb 3f4e 043e 577b 0b3d 3ce6 943c
000000b0: cb6b 1d3d 28ad 36bd 8640 6e3c f1e9 fc3d
000000c0: d0fa b33b a676 6abd 3c52 363d e3ac e03d
000000d0: f4f5 e03d 0cd0 b5bd 4587 5fbe c591 b2bd
000000e0: 1726 4e3c 6837 adbc 3e48 06bd ef03 dbbd
000000f0: 0c68 03bd af11 b5bd 7fc1 ef3d 2e8f 093d
00000100: 2114 f3bd 14b6 003d ddf8 003e 5a20 a8bc
00000110: e3b1 8abd 5305 95bc a5b6 be3d cdb5 f53d
00000120: 6a36 70bd 237c ac3a f2f4 fdbc a940 e2bb
00000130: 3ae1 4fbe c16d 83be c72e f1bd 0cae 81be
00000140: ced7 ffbb 91aa fdbd c3be a8be 9534 c5be
00000150: 56b1 b5be c14a 023c ff08 a4be 614a 23bf
00000160: c107 0bbf bea4 b7bd c529 02bd 1810 adbe
00000170: 8eaa 00bf ac69 85bd bf07 103d 3688 a13d
00000180: 5f9c 60be 30f2 eebd c391 123d 30fa 283d
00000190: ee83 b5bc 9fc2 8abd 1c9b f43d 4df7 033e
000001a0: b25c 4fbe 9467 6fbd 2180 ad3c a827 3e3e
000001b0: 3b8a 1b3c 18cd 5ebe ccec 3ebd 7774 293e
000001c0: c47b 043e ee3d f9bd 7aa9 7c3d 2810 9f3c
000001d0: afa4 1f3e 143f 4bbc 5af5 883c 9171 ca3d
000001e0: 777e 063e 2ce0 a83d 05bf b03c 3abb 803d
000001f0: 4d83 3cbd c4b5 593c 2ea0 133d 0073 583d
00000200: cc06 93bc 73ae eabc a9e7 e3bb 0dc1 2bbe
00000210: 9555 833d 53c4 f63d b72c 643d 3d6b 9c3c
00000220: 0b7f 363b 0aab ba3d 9394 b23d 06e2 5cbc
00000230: aabd dc3c 6e4b c9bc 5df2 a73d 750b de3d
00000240: 5c10 f4bc 6ce0 3cbd c470 1e3a de2a fabc
00000250: e797 c0bb 8964 29bd 69bc 76bd 4b79 6f3d
00000260: 867a 683e db9a 943d 5808 bfbc c62b 1e3d
00000270: bbab a03d 6560 2b3d 4971 0fbe 50db c1bd
00000280: b8cb 84bd e2b1 7fbd ae96 bcbd 6a00 8d3d
00000290: 8bbe bc3d 01e2 b6bd 9b6d 56bd b630 513d
000002a0: 6175 3a3c 7188 09bd 8634 c7bd 46dd 20bd
000002b0: 9a30 1cbe 450d c6bd e7a6 72be f34b 1fbb
000002c0: 98dc 58bc bd73 ca3b bbad cebc d8d7 423d
000002d0: dfc1 a13d a15c c83c 2985 10bd 5757 73bd
000002e0: 3a54 83bd 94c2 363d 9c84 8f3d dec9 b53d
000002f0: 5bb9 d0b9 6356 943d 0e7b e9bc d33e 663d
00000300: 042d 3f3d 2479 d4bc 92d7 a1bd 43a9 16be
00000310: 6ec0 4fbe 6315 87bd dbbd bcbd 4160 33be
00000320: 523d 67bc 8cbd ecbc b0f4 25bd b1c2 b33d
00000330: 3798 323e 7c31 24bb 3ce9 2d3d 7fab c4bc
00000340: 8590 a33d 5f4a 30bc 4570 183e 1246 f93d
00000350: 2a65 813d a34d 12bc a218 7a3b 3204 69bb
00000360: dec3 283d 4c77 fe3d 8695 1d3e b1e7 4c3e
00000370: 17ee 8ebd df9a 8c3d ab2b 153e b84c d73d
00000380: e3a8 883d 22a3 f2bd a13d d73d c5ea 363d
00000390: c157 853d ca9c c73b 518b ecbd d3a6 ecbd
000003a0: cd4e 83bd 1905 463e f274 173e fff5 80be
000003b0: 60dc 763d 14c0 b83e fc96 f73e 6d66 513e
000003c0: 2a86 1d3e 6fc0 6e3e 3feb 9c3e e0e5 853e
000003d0: 5580 d43d 1f6d 173e 2ed2 49bb 7f32 483d
000003e0: 0361 b53c 72e7 e1bd 7c14 5a3d d5ec 463d
000003f0: dae6 063e f8e1 cdbd 7bcd 92bd e906 b93d
0.06355531 -0.024139505 -0.07118434 0.12105862 0.046091147 -0.05552018 -0.17393605 0.21131137
0.13479073 -0.16378856 -0.13204648 0.11515835 0.24948941 0.1261174 -0.11011015 0.01855229
0.10442889 0.14400224 -0.05601829 0.07494276 0.07578556 0.058136962 0.072009966 -0.05129516
-0.03596928 -0.090615466 -0.15248702 0.08397432 0.16750742 -0.022373213 -0.12123832 -0.09257343
0.15227313 0.13890848 -0.14655049 -0.04392352 -0.04597938 0.13490002 0.14447154 -0.09982579
-0.006658274 0.12920474 0.034053173 0.01817619 0.038432878 -0.04459873 0.014541751 0.12349308
0.0054925457 -0.05724206 0.04451202 0.109704755 0.10984412 -0.088775724 -0.21828945 -0.087192096
0.0125823235 -0.021144584 -0.03278374 -0.1069411 -0.03208165 -0.088412635 0.11706828 0.033583812
-0.11869074 0.031423643 0.12594934 -0.020523239 -0.067722104 -0.018191015 0.093121804 0.11997566
-0.058645643 0.0013159554 -0.031000588 -0.0069046807 -0.20300761 -0.25669673 -0.117765 -0.253281
-0.0078077083 -0.123860486 -0.3295804 -0.3851668 -0.3548686 0.007952393 -0.32038113 -0.6378537
-0.54308707 -0.08966969 -0.031778116 -0.3380134 -0.50260246 -0.06514296 0.035163637 0.07887308
-0.21934651 -0.11667287 0.03578354 0.041254222 -0.022157636 -0.06775402 0.11943647 0.12887307
-0.20250204 -0.05844839 0.02117926 0.18569815 0.009493406 -0.21757925 -0.046612546 0.16548334
0.12937838 -0.12170015 0.061685063 0.019416884 0.15590166 -0.012405176 0.016718555 0.09884942
0.1313418 0.082458824 0.02157546 0.06285711 -0.046023656 0.013287965 0.03604143 0.052844048
-0.017947577 -0.028647637 -0.0069551063 -0.16772862 0.06412808 0.120491646 0.055706706 0.019094104
0.002784672 0.09114654 0.087197445 -0.013481623 0.026945908 -0.0245721 0.08200524 0.10842029
-0.029792957 -0.046112463 0.0006044025 -0.030538019 -0.005877483 -0.041355643 -0.060238276 0.058465283
0.22702989 0.07256099 -0.023319408 0.038615964 0.07845255 0.041839976 -0.14008059 -0.09465659
-0.06484169 -0.0624255 -0.09208427 0.068848446 0.09216031 -0.089298256 -0.05235062 0.051071845
0.011380524 -0.033577386 -0.09726815 -0.039273523 -0.15252915 -0.096705 -0.2369648 -0.0024306744
-0.013236187 0.006178348 -0.025229326 0.047569126 0.07898306 0.024458231 -0.03528324 -0.059409466
-0.06412549 0.044619158 0.07007715 0.08876394 -0.00039810952 0.072430395 -0.02850106 0.056212258
0.04667379 -0.02593667 -0.07902445 -0.14713006 -0.2028825 -0.06595876 -0.092158996 -0.17517187
-0.014113741 -0.028898977 -0.040516555 0.08777369 0.17440878 -0.002505391 0.042458758 -0.024007557
0.07986549 -0.010759919 0.14886577 0.12171568 0.06318124 -0.008929643 0.0038161655 -0.003555548
0.04120242 0.12425098 0.1538907 0.20010258 -0.06979006 0.06865477 0.1456744 0.1051268
0.066728376 -0.11847521 0.10509802 0.044657487 0.06510878 0.0060916888 -0.1155001 -0.11555257
-0.064115144 0.19337882 0.14790705 -0.2518768 0.06026876 0.36084044 0.4835738 0.20449229
0.15383211 0.23315595 0.3064823 0.26151943 0.1037604 0.1478772 -0.0030795443 0.04887628
0.022140985 -0.11030473 0.05324219 0.048565704 0.13174 -0.10052866 -0.071680985 0.09034521

conv2.bias f4 [12]
00000000: 5ad7 8abd bb93 7fbd ab8d 0b3d d7d0 95bd
00000010: 5248 0dbe 6ac6 183d 722d b3bd ed5b 873d
00000020: cf48 8ebd 12cb 2dbe 94dc fabc ce63 c0bd
-0.06779356 -0.062396746 0.034070652 -0.07315224 -0.1379712 0.037298597 -0.087489024 0.0660933
-0.06947481 -0.16971996 -0.030622758 -0.09394036

fc1.weight f4 [120, 192]
00000000: b201 babd 86c1 d63c 1018 af3d 6a0f 8a3d
00000010: f5c4 843a c37b 67bb 7652 fd3c 54de 4dbd
00000020: 82f1 23bd 34d9 cabb e859 9dbd f9e9 da3c
00000030: 27d6 4bbc 753c d73c b8b9 993c 6926 5b3d
00000040: c04b 593d b5c9 4c3d 30f7 d23c b20f b93d
00000050: 0bda 2b3d 946d 2c3d d0bd b53c bf4f 3b3d
00000060: aea3 b83c 1dba 8b3d 3ee6 493d 6fab ae3c
00000070: 0bc0 a33d eb00 923a 7b67 ec3c 1bd7 903d
00000080: c5a1 39bd ffda 6dbd 34f3 b1bb 85a0 403d
00000090: 607c aa3d 134d e2bc 16d6 f63d 43b0 593d
000000a0: 56a3 423d 2df9 35bd b7be 1e3c bb2a 0b3e
000000b0: febf 2a3e d107 2ebc 4afb c7bc 654a 283d
000000c0: ac02 3abd 048d a9bc e6f1 343d d796 d0bd
000000d0: 7c29 bdbd 3479 2dbc 3b87 42bd ec6a 7dbb
000000e0: 6d06 eabc 5dd2 8b3d df51 813b 66de 4c3d
000000f0: cda2 7c3d 8191 edbc 798c 0f3d 14ad 38bd
00000100: f5c4 7f3c 2418 e9bb ab45 fcbc 6723 17bd
00000110: 371f 90bd 9831 55bd af09 a73b c810 33bd
00000120: 72a9 a9bc 88c8 b93c 2c6e e13d bfdf c83d
00000130: aa0a 4a3e d980 fdbb b5de 1b3d b6dd 993c
00000140: 0c1f 17bc 5954 a53d bf42 5c3d 0fc2 1a3e
00000150: 84a1 a13d 3a5c 813d b306 0a3d 33b3 d93c
00000160: 3696 8f3d d73e 68bc 2c12 19bd eec8 733d
00000170: f6e9 c43d 6028 65bd 89f4 873d c697 6abd
00000180: a012 cfbc 2409 2a3d 4c37 0abd dfcc ffbc
00000190: 2daf bf3c b0e5 813d 3e22 893c df82 f2bd
000001a0: 2806 383d 0fe1 14bd a182 cbbb 6b4c 8e3d
000001b0: 1627 efbd 30aa 77bd b636 ba3c 552a d73c
000001c0: fd44 173b e8f7 e1bd 2e89 f43d 6c79 213c
000001d0: 23db a3bc e2aa b6bd 84d6 c63d 2f1f 98bc
000001e0: e051 b7bd 4685 cbbd babb 61bd 86aa c1bd
000001f0: 60f4 6abc db78 263d 0226 80bd 539e 1cbd
00000200: f373 d4bc 5b3e 713c 1187 2bbd e699 32bc
00000210: cdd6 ad3d 433e 933d 5d74 963d e4be 5dbd
00000220: 68b1 b93d 1183 4d3d c6ec 48bd d56c 353d
00000230: 7978 d73d c00d e13d 98e0 3b3e 1c0e 403d
00000240: ab94 1d3d 7b33 653d efc1 e8bb fa40 5ebd
00000250: f955 b9bc 36a1 49bc 3d17 71bd 3d28 68bd
00000260: 4dc3 b0bd fd68 3f3c fab9 f43c b07e db3d
00000270: b1d5 a2bd 8c78 683c efbc 973d 86bb eb3d
00000280: 864e ddbd f244 6bbd d00e aa3d f632 dfbc
00000290: 1510 17be b8ac 253d 1264 9a3c 7d77 73bd
000002a0: 6717 b7bd e7ad 5c3d a067 863d 75a2 debd
000002b0: f66a 8a3c f4d6 ab3d 2133 18bd 7d6a df3d
000002c0: e3db 38bc 7e06 513d 67f8 023d d87e dcbd
000002d0: 7d93 173d 8bec f7bb 7ce5 54bd 7832 02bd
000002e0: 3f43 f93d 4e7a eabd 4a5c 34bd b9bb ae3c
000002f0: a251 963d 866c 2dbd b934 8c3d aee8 9d3d
00000300: ff49 373a 04b4 1a3e 066c 15bb 1d38 b13a
00000310: b52a d53d da9f 033e 03b9 a4bd 6962 f1bc
00000320: c941 233d b3fd 23bc 6b1d 393a e0ad 803d
00000330: 8190 cf3d 5152 8d3d 4dc7 3f3d a978 0e3d
00000340: 8893 77be a562 0dbe 927c 99bd 1fdf 5d3d
00000350: e911 efbd 55a7 8a3c 5dc0 7d3c 5240 6cbd
00000360: 002d 33bd e931 ac3d 6e69 833d 50bd bebc
00000370: 7129 483d 16ea 8e3d 1bb3 09bd 3e01 843c
00000380: fc9a 2dbe cab9 04be a0f2 a33c 0132 f63d
00000390: ee93 59be f584 cdbd cef2 083d 4779 74bc
000003a0: 27ca 71bb 8bcd da3d 8005 23bd f587 a13c
000003b0: 26b1 b23c 6914 0a3d dada 01be 0dc1 f3bd
000003c0: a63a afbd 3676 ba3d cf51 a63d 0f2b 1a3e
000003d0: bfe4 80bc d4ea 683d e9a9 adbc f1d6 da3d
000003e0: f0a3 9cbc 0b90 cd3d 566a 0e3d eff3 633d
000003f0: ee34 143d 1a80 30bd 5247 fd3b baf4 8a3d
-0.090823546 0.026215326 0.085495114 0.06741221 0.0010129499 -0.003532157 0.03092311 -0.050260857
-0.04002524 -0.0061904434 -0.07683164 0.026722895 -0.012441195 0.026273945 0.018765315 0.053503428
0.053050756 0.04999705 0.025752634 0.09036197 0.04195599 0.04209669 0.022185236 0.04573035
0.022538986 0.06822608 0.04929184 0.02132198 0.07995614 0.001113919 0.028857937 0.07072278
-0.04532029 -0.05807018 -0.0054306034 0.047028083 0.08324504 -0.027624642 0.120525524 0.053146612
0.04751905 -0.044427086 0.009689025 0.13590519 0.16674802 -0.010621981 -0.024411816 0.041086573
-0.045412704 -0.020697124 0.044176005 -0.101850204 -0.09236428 -0.010587979 -0.047492247 -0.0038668467
-0.028567517 0.06827233 0.0039465274 0.050016783 0.061678696 -0.029000046 0.035046075 -0.045086935
0.015610923 -0.0071134735 -0.030794939 -0.036898997 -0.07037204 -0.05204925 0.00509759 -0.043717176
-0.02071068 0.022678629 0.11007342 0.09808301 0.1973063 -0.007736307 0.038054187 0.018782478
-0.009223711 0.08072729 0.05377459 0.1511309 0.07892135 0.06316419 0.033697795 0.026574707
0.07011072 -0.014175138 -0.037370846 0.059517793 0.09614937 -0.055946708 0.06638438 -0.05727365
-0.025277436 0.041512623 -0.03374414 -0.03122562 0.02339896 0.063426375 0.01673996 -0.11841368
0.044927746 -0.036347445 -0.0062106405 0.06948169 -0.11677377 -0.060465038 0.022731166 0.026265303
0.0023081892 -0.110336125 0.119402274 0.009855609 -0.020001953 -0.08919312 0.09708884 -0.018569557
-0.08951163 -0.09937529 -0.05511067 -0.09456353 -0.01434049 0.0406426 -0.062572494 -0.038236927
-0.025934195 0.014724339 -0.041876856 -0.01090095 0.084882356 0.0718961 0.07346413 -0.054137126
0.09067041 0.050173823 -0.04905393 0.044293243 0.10521025 0.10988951 0.18347394 0.046888456
0.03847186 0.0559573 -0.007103197 -0.054261185 -0.022624003 -0.012306502 -0.058860052 -0.056679
-0.08631001 0.011682746 0.029873837 0.10717523 -0.07950915 0.014188897 0.07409083 0.11510377
-0.10805993 -0.0574388 0.083036065 -0.02724598 -0.14752229 0.04044792 0.018846545 -0.059440125
-0.089400105 0.053876784 0.06562734 -0.1087083 0.016896706 0.083906084 -0.037158135 0.10908983
-0.011282894 0.051031582 0.031975176 -0.10766381 0.03700589 -0.00756604 -0.051976666 -0.031786412
0.12171029 -0.11449109 -0.044033326 0.021329748 0.07339789 -0.042339824 0.068459935 0.07710396
0.0006991922 0.15107733 -0.0022799983 0.0013520751 0.10408536 0.12853947 -0.08043101 -0.029465871
0.03985766 -0.010009217 0.00070615736 0.06283164 0.10134984 0.06900466 0.046820927 0.03478304
-0.24177372 -0.13807161 -0.07494463 0.054167863 -0.11673338 0.016925493 0.0154877575 -0.057678528
-0.043744087 0.08407957 0.064165935 -0.02328363 0.048867647 0.06978242 -0.033618074 0.016113874
-0.16953653 -0.12961498 0.020013154 0.12021256 -0.21247837 -0.10035125 0.03343468 -0.014921493
-0.0036894174 0.106837355 -0.039800167 0.01971815 0.021812987 0.03371087 -0.12681141 -0.11902056
-0.08556108 0.09104578 0.081210725 0.15055488 -0.015734075 0.056864575 -0.021199184 0.10685528
-0.01912114 0.1003724 0.03476938 0.055652555 0.03618329 -0.043090917 0.0077294493 0.06784959

fc1.bias f4 [120]
00000000: 4b2d 91bc 70b0 b33d b2b4 cdbd 4753 5fbd
00000010: 9092 f23a 69ab 193b 6514 8bbd aee3 33bd
00000020: 3c66 d23b e104 9d3a c49c 8b3d 553c 803d
00000030: e282 513c 4fd9 d33c ff50 a9bd 0800 f33d
00000040: 922d 993a 4eef 04bd 6480 55bd eb83 78bc
00000050: d20c aa3a a849 243b e01f 77bb 2206 43bd
00000060: 2297 c13c 2239 27bd c639 5b3d 7427 b23c
00000070: 7ee2 ffbc 0b1a 8f3d 3501 463d 9208 41bc
00000080: 2508 c43d e395 973c aad4 fdbd b845 d13d
00000090: 915e a03c 2cf0 97bd 0da4 c938 807a 92bd
000000a0: 5d87 32bd dd05 fdbc 63c7 8dbd 20d6 e93d
000000b0: 18fe 84bd 0ecf 813d 15cb 44bc e489 a73c
000000c0: 9269 cd3c 5a29 43bd d297 a23d 7f4e 453c
000000d0: 76be f0bd 1a79 b4bc 8801 03bd 77b7 783d
000000e0: 09c9 463c 98dc 8c3d 2324 e73c 5a9e 1dbd
000000f0: c1a5 d6bc a32f 8fbd b99b 103d 2b0b 343d
00000100: 0dd4 92bd 4aa4 c23d 45ce 2e3c 9b90 003d
00000110: 05ef a23d bdbb 7d3c 670f 1dbd 3164 5a3c
00000120: 2315 bcbd f8fd 8fbc f4bc d4ba fe4b 49bd
00000130: 2623 35bc 5999 513d 3411 9a3b 3edf 173d
00000140: d8b2 a43c e094 a43d f9fc 0e3e 61de 8bbd
00000150: e201 7c3d b1f2 8b3d 0cfc 8a3d 5d09 353d
00000160: 84ae 9cbd 49d0 a83d e052 f13b 1943 cdbd
00000170: 885e 113c c674 cf3b e7fc 9f3d 137d 683d
00000180: 7142 77bc e116 4fbd d942 913d 8469 163d
00000190: ac2e 2abb 03f3 6c3d a3aa 433c a134 073d
000001a0: a692 513d ad72 493c 6a1e 9f3c 89b0 6abc
000001b0: b6c9 a1bc 6265 eb3d 62da 9b3c 5858 a5bc
000001c0: 4be9 803d 910a 953d 0cec d13a 5da9 8f3c
000001d0: 2e79 393b abf8 97bd 2ed0 0f3d c789 3bbd
-0.017721793 0.08773887 -0.100442305 -0.05452278 0.0018506814 0.0023448116 -0.06790999 -0.043918304
0.0064208787 0.0011979603 0.0681701 0.062615074 0.012787553 0.025860457 -0.08267402 0.1186524
0.0011686555 -0.03245478 -0.052124396 -0.01516817 0.0012973791 0.0025068317 -0.0037708208 -0.04761327
0.023631636 -0.04082597 0.053521894 0.021747328 -0.03123593 0.06987389 0.048340995 -0.0117818285
0.09571866 0.018504089 -0.12394078 0.10218376 0.019576343 -0.07418856 9.614984e-05 -0.07152271
-0.043586124 -0.030886585 -0.069227956 0.11417794 -0.06493777 0.06338321 -0.012011309 0.020451494
0.025074754 -0.047646858 0.07939114 0.012042641 -0.117550775 -0.022030402 -0.031983882 0.06072184
0.012132891 0.068780124 0.028215474 -0.038481094 -0.026202084 -0.06991508 0.03530476 0.043955963
-0.07169352 0.09503992 0.010669296 0.031387907 0.079557456 0.015486655 -0.038344767 0.013329552
-0.09183719 -0.017577156 -0.0016230629 -0.049144737 -0.011055743 0.051171634 0.004701758 0.037078135
0.02010481 0.08036208 0.13963689 -0.06829525 0.061525233 0.06833399 0.067863554 0.044198383
-0.07650474 0.08242852 0.007364616 -0.100225635 0.008872636 0.006331059 0.07811909 0.056759905
-0.015091524 -0.05055893 0.07092828 0.03672172 -0.002596776 0.05784894 0.011942538 0.033009175
0.051165245 0.012295407 0.019423682 -0.014324316 -0.019749504 0.114939466 0.019025031 -0.020183727
0.06294497 0.07277406 0.0016015782 0.017536813 0.0028300988 -0.074204765 0.035110645 -0.04578569

fc2.weight f4 [60, 120]
00000000: 83bc 9e3c e032 3e3d 5635 2f3d 8e68 3c3d
00000010: 44aa 82bd dd28 babd e725 203d 6f21 673c
00000020: 43d4 343d 6164 9c3d e30c cb3b 23a9 253e
00000030: fcc8 353d d2d4 023e 7df1 16bd d312 e53d
00000040: 1b12 2f3d 4612 a43d 51d2 443e a5b9 1cbd
00000050: e2a6 67bd 444a a2bd 85b6 053c b868 1a3d
00000060: 9bf3 3f3c f0fa a0bd 3c8e 59bc f96f 303e
00000070: b344 173e 4e5e ff3d 7a03 72bd 17ab 41bd
00000080: 308c ec3d 7566 8a3b 492b 16be a770 573d
00000090: bd85 793e 5ef7 a7bd cc0d 333d 1c4c 9f3d
000000a0: 5e86 22be d2cf b03d c138 533d 90e6 8f3c
000000b0: 201d fd3d 97ec f53a 8ee3 713d 32ec b5bd
000000c0: b992 d83c f64c 803d 761b c23d e556 b4bd
000000d0: 4c02 35bc b46d 1cbe c7c7 28be 6155 5b3d
000000e0: bc0f e0bd 9531 82bd 398d 49bd 5141 5cbd
000000f0: e01b 93bc a4c9 f4bd 8fa4 e83d a820 29bc
00000100: da1d 1a3e c4d1 0b3c ac58 123e 59da d5bc
00000110: 75ee 9ebd 12c3 68bd 9fa0 5ebd 54d5 ac3d
00000120: eefe fb3d 769a 2abd ce61 d13d 7ad5 94bd
00000130: 7745 bc3d 41b2 463d f6e5 8abd 5876 c6bd
00000140: 8667 c3bd 6b4b e63c d2da 353e 9753 94bd
00000150: abad ce3d 4693 043e 0b6e c63d ce7f cebc
00000160: bb6a 213e ad23 de3d 0c48 f33d 7227 efbb
00000170: 6548 023e 66c2 683c d85d 0f3d ec6d 893b
00000180: 4d42 3fbd e293 a2bd 7d74 7e3d 1872 e23d
00000190: d2b1 703d c076 a6bb 5be1 3fbc ba43 8ebd
000001a0: 263b a83d d4ca 47bd 32f0 c33d 00ab 8fbd
000001b0: ee34 c73d 2eba 923d 0dad 163c efe3 ec3c
000001c0: aad7 1f3d b8a7 13bd 6aad 7a3d d28b 983d
000001d0: ea35 593c 7f6b 1cbc c6a9 c5bd 322b 29bd
000001e0: ec2d 303d 110f 0cba 5e6e b7bd 0e66 23bd
000001f0: 595b 243d 1fdb c63c a4ed 96bd e8a4 cb3a
00000200: b280 8fbd a7f8 81bc ac2b 543d acbf 91bd
00000210: 1219 f7bc e9c2 ad3d 61be 65bd 17cc e2bc
00000220: 539c 9d3d 09f9 ea3c 14e3 63bd 85dc d1bc
00000230: 1120 82bc da68 bb3d 1dc8 af3d 7c74 d1bc
00000240: e689 8e3d fe9f f03c 9840 a33d 6cf6 9e3d
00000250: 3ff6 d9bc 21dd f7bc 794c 1abd 4b6e bbbd
00000260: f397 1ebd 5180 0c3d 5a10 1d3d 3d0a 2e3d
00000270: cd34 493d 042b b8bd 067b 1f3d 9abf 6a3d
00000280: 6b34 9dbd 233e 87bd b419 08bd 944a 473d
00000290: d44b 3a3d 71a4 9bbc 1b4e 923a 034f e93c
000002a0: 99aa 1d3d 68f2 85bd 2c2a 78bc 6d6b a43d
000002b0: 2511 a7bd 42b7 743d 5e84 583d 7f91 bd3d
000002c0: 8db8 063d b762 9c3c 1cb6 0e3d 3386 053d
000002d0: 0050 a0bd 089b db3c 61a9 24bd 5a2f 053d
000002e0: 4957 57bd 6c2a afbc 6b33 803d d7e6 2bbd
000002f0: ae8c 6bbd 9747 8b3d 74bb c5bd 0ebc 003c
00000300: 5983 27bd 7633 09bd 20e1 a73d 2b4a 913b
00000310: 3d3f fb3c 7b55 a13d 85cc aa3d 65e5 653d
00000320: bf83 b6bb 5068 653c f97e 073d b98c 653c
00000330: 493f 2ebd 7182 c5bd 5b47 aebd 23f7 34bd
00000340: fbbd c2bd 61cf debd 8dfb 303d dd48 3abd
00000350: 40fe 9dbb 69a3 74bd 8e9f 653c 1140 50bd
00000360: ec64 953c 2b86 e7bc 5694 80bd e727 46bd
00000370: e266 9e3d 7d3b b7bd 257f a6bd 1561 0b3d
00000380: f972 6ebd 4a93 3e3d 899f 1dbc 90fd e6bc
00000390: a473 9cbc 34c9 563d 806c d6bd 87c3 433d
000003a0: 1906 3b3d 1a6b 503c 8719 8f3d 40e3 a4bd
000003b0: b9c1 e9bb fa59 a3bb 463a 1abd e281 74bd
000003c0: c1a0 f63c c296 c2bd 8da7 1c3e 33ef 43bc
000003d0: f152 873d 6916 c53d a677 51bd 89d1 c1bd
000003e0: ca9d 08be b626 173e 2534 b7bd 131c a8bd
000003f0: a3f4 67bc c438 ed3d 9f5d fdbc 7f77 2a3e
0.019376999 0.046435237 0.042775474 0.04599815 -0.06380132 -0.09089825 0.039098646 0.014107092
0.04414774 0.07636333 0.0061966046 0.16177802 0.044381127 0.12776497 -0.036851395 0.11185231
0.042741876 0.08011298 0.19220854 -0.038262982 -0.056555636 -0.07924321 0.008161192 0.037697524
0.011715795 -0.078603625 -0.01327854 0.17230214 0.147723 0.12469159 -0.059085347 -0.047282305
0.11550176 0.0042236396 -0.1466495 0.052597668 0.24367423 -0.082014784 0.04371433 0.077781886
-0.1587157 0.086333886 0.051567797 0.017565995 0.12359071 0.0018762526 0.059054904 -0.08882941
0.02643715 0.06264679 0.09477894 -0.08805636 -0.011047911 -0.15276223 -0.16482459 0.05354822
-0.10940501 -0.06357113 -0.049206946 -0.053773228 -0.017957628 -0.119525224 0.11359512 -0.010322727
0.1505045 0.008533899 0.14291638 -0.026105093 -0.07760326 -0.05682666 -0.0543524 0.084391266
0.12304483 -0.04165121 0.10223733 -0.0726728 0.09192937 0.04850984 -0.06782143 -0.09690541
-0.0954123 0.028112134 0.17759255 -0.07242506 0.10091718 0.12946805 0.09688958 -0.025207426
0.1576337 0.10846648 0.11878976 -0.0072984034 0.12722929 0.014206504 0.035001606 0.004194012
-0.04669409 -0.07938363 0.06212281 0.11056918 0.058763333 -0.005080074 -0.011711444 -0.069465116
0.08214407 -0.048777416 0.09567298 -0.070150375 0.097268924 0.07164417 0.009196532 0.028917281
0.039024033 -0.03604862 0.061200537 0.074485436 0.013257483 -0.009547113 -0.09651522 -0.04130096
0.043012545 -0.0005342821 -0.08956598 -0.03989225 0.04012618 0.024274407 -0.07369545 0.0015536817
-0.070069686 -0.015865637 0.05179946 -0.07116637 -0.030163322 0.08484442 -0.056089763 -0.027685208
0.07695832 0.028683202 -0.05563648 -0.025617847 -0.015884431 0.09150858 0.085830905 -0.02556824
0.06959896 0.029373165 0.07971305 0.07761845 -0.026606677 -0.03025681 -0.037670586 -0.09151896
-0.03871913 0.03430206 0.038345672 0.042490233 0.04912262 -0.089925796 0.038935684 0.05731163
-0.076760136 -0.066036485 -0.033227637 0.048655108 0.04548247 -0.01899931 0.0011162193 0.028480059
0.038492773 -0.06540376 -0.015146773 0.08028302 -0.08157567 0.05974508 0.05286061 0.09256267
0.032890845 0.01909004 0.03484164 0.032598685 -0.07827759 0.026807323 -0.040200595 0.03251586
-0.052573476 -0.021382533 0.06259807 -0.041968193 -0.05750721 0.06800764 -0.096548945 0.007857336
-0.040896747 -0.033496343 0.08197236 0.0044338903 0.030669803 0.07877632 0.0833979 0.05612697
-0.0055699046 0.014001921 0.033080075 0.014010602 -0.042540822 -0.0964402 -0.08509704 -0.044181
-0.09508892 -0.10879398 0.043208648 -0.045479644 -0.0048215687 -0.059726153 0.014015092 -0.05084235
0.0182366 -0.028262218 -0.06278293 -0.048377898 0.07734467 -0.08946893 -0.0812972 0.03402813
-0.058215115 0.046527185 -0.009620556 -0.02819708 -0.01909811 0.052437976 -0.104699135 0.04779389
0.045660112 0.0127208475 0.06987291 -0.08051157 -0.0071336892 -0.0049850913 -0.03765323 -0.05969418
0.03010595 -0.09501411 0.1529829 -0.011958885 0.06607617 0.09623415 -0.051139496 -0.09463794
-0.13341442 0.14760861 -0.08945493 -0.0820848 -0.014157447 0.11583093 -0.030928431 0.16647147

fc2.bias f4 [60]
00000000: 6e0f 103e 6bf4 0ebd f740 fc3d 33d7 9ebd
00000010: 20f1 74bd 5fe5 fb3c 1e58 14bc 9ff4 db3d
00000020: 505e 973d 3bdc a339 bf0f b03c e9b9 e93d
00000030: 9908 643d 094c 8abb cb57 d03a 58c0 68bd
00000040: c125 c7bd 9d1f 863c 19c3 9bbc 6f57 693d
00000050: 7dd4 8cbd 9124 1a3c e199 773d bd8a c73c
00000060: 4370 65bd fc89 a53d 21f8 be3d 446f 6e3d
00000070: 9468 56bd bb62 543d 7aaf d3bc d940 fcbc
00000080: ff22 4b3d 5597 603d 8a49 543d 146d bfbd
00000090: aa3f af3d efd2 fd3c 9a07 1dbd e066 5ebd
000000a0: 1d9b ad3d 054a f03c da7a f33d 2dfe 4fbc
000000b0: b01f de3d 6ba2 9a3d 24a3 313d 910d f0bb
000000c0: ebc6 553d b8a7 35bd 5958 063d 1f73 383c
000000d0: b7be 5a3d bb7d 00bd daad 993d 3ab9 b0bd
000000e0: ab78 bc3d 7b2e c13c 4f46 20bd 1215 1dbd
0.14068386 -0.034901064 0.123170786 -0.0775589 -0.059800267 0.030749021 -0.009054212 0.10740017
0.073910356 0.00031253867 0.021491883 0.11412413 0.055672262 -0.00422049 0.0015895305 -0.05682406
-0.09723998 0.016372496 -0.019013928 0.05696815 -0.068764664 0.009408132 0.060449485 0.024358148
-0.056015264 0.08082959 0.093246706 0.05821158 -0.052345827 0.05185197 -0.02584051 -0.03079264
0.04959392 0.05483182 0.051827945 -0.09346977 0.08557065 0.03098437 -0.038337328 -0.054297328
0.08476851 0.02933217 0.118886665 -0.012694878 0.10845888 0.0755051 0.043368474 -0.007325836
0.052191656 -0.044349402 0.0327991 0.011257916 0.053404536 -0.031369906 0.07503863 -0.08629079
0.09202703 0.023581734 -0.03912955 -0.038350172

out.weight f4 [10, 60]
00000000: 7319 ce3d bcd6 9f3d 0adc 2bbd 5435 ed3d
00000010: de0b ac3d f9da a63d d23a 133e 46dc 503d
00000020: 2b0b 10be 6bd2 0dbd c686 e1bd c303 8f3d
00000030: 9808 1fbc a5d6 77be 6d42 36be d26a 2bbe
00000040: dcde 163c 6848 64be e8c7 08be 1347 87be
00000050: 4d9f 3bbd d192 d7bc c265 0cbe 3a9d 04be
00000060: 84f8 193e b25c d43d 98a9 183e 8eb1 40bc
00000070: 5bc5 f9bd bccb 26be 1121 b33d 49c1 963d
00000080: 0b73 ebbd 028e 343d 69d2 0e3e 59d7 3abe
00000090: 595a 31be 17e1 b23d 6968 41be fd31 e83c
000000a0: ab50 febd 17eb a13c 0639 693b e002 90bc
000000b0: 4496 653d a309 333d 8c0d 2cbd 88e3 95bd
000000c0: 6ca7 e43d 5531 b63c 7dd4 1c3e 6490 7bbe
000000d0: 8b7e e0bd 5d1a a13d a0e0 d93d f3d8 a93d
000000e0: f0b6 993c 197e b73c d04c 29bd f873 71be
000000f0: df5b 9bbe ba1f d0bd 666e 85be db2d 27be
00000100: b282 d83d cccf f6bc 173b 873d 2884 4c3d
00000110: 21b7 b83d d228 f3bc b31b 65ba 61c0 903d
00000120: 661d 92be 90d4 1fbe 7bbe 593d 21c1 8abd
00000130: 549b d9bd 63e2 acbd c4f3 1e3d 5e00 933d
00000140: 4111 773e bd24 02be 57bb bc3d 979e 203e
00000150: 0a23 8f3d 4293 4fbe 868b cfbd 3022 afbd
00000160: 5acc 023e ab84 8ebc 7ecd 4d3d 8885 e03c
00000170: f0b7 0cbe 9005 893d 255d 5cbe e3c5 babd
00000180: 97bd 553d f7bd 323e 857d 533b 350e 913e
00000190: 1212 29be 3392 f73c 6e12 b13d 76d8 2b3e
000001a0: c84d 9cbd 41e8 673e 8490 c7bd 0805 573d
000001b0: c949 bd3c 9a0c b9bb 01de 6f3d 6040 1b3e
000001c0: 73cb 2ebc 20b8 fb3d 1127 92bb d075 ee3d
000001d0: b98a 91be 393e 82bd dfcb 82bd 3667 843d
000001e0: e097 c13b 824a c7bc cc9e aa3d 3fce c63d
000001f0: a6d6 733d 8557 dbbd 7dd0 243e fa8d 3cbd
00000200: aef1 043e 82d7 cdbd 8713 f6bc d6e0 aabd
00000210: 3f2a e7bd b3b1 b7bd 6aa6 eb3d 9f84 f8bc
00000220: fa64 f83c 7c3b 77be 898d 81be bdfb 0e3e
00000230: ed98 863d cdd6 223d 7911 423e f7aa dcbc
00000240: b6b4 5cbe f026 f53c 41be ee3d a38c 053e
00000250: 3fce e93d e852 0cbe 03a3 4fbd fc4b 553e
00000260: 0eb2 8e3d e599 9dbd d189 2cbd 89fb dabd
00000270: aaa6 b23d d9a2 613d 4ccd 16bd 2230 7abe
00000280: 9180 403e 92df 303c 72c9 4dbd 0afb 77be
00000290: 5478 7b3c 87e2 55be c1f5 c23d 63a5 5abd
000002a0: a2e2 4e3b 4a03 19bd 8879 bbbd 0b84 3b3e
000002b0: b2af bcbe dcdf 9fbd c9e9 2e3d 7149 823b
000002c0: 0741 443e f97e 4bbe c4d6 c8ba 7822 82be
000002d0: 84a5 87bd 377d 9d3d 382d 1c3e be7c be3d
000002e0: 9637 dc3b dc61 d13d 7af8 203d 6183 e0bd
000002f0: 3700 1d3e 91c2 03be 3d74 543e e81c 7bbe
00000300: fd7f 1c3d c3e0 233d cb58 60be 5669 81be
00000310: ec3a 9e3c 9394 2a3e d6e9 69be 9eb7 09be
00000320: 7bb8 88be 4b04 a0bd 5a6b 363e de79 67bc
00000330: f934 3c3d 74e5 3cbd 5ad9 423d 898c a8be
00000340: 91bd 94bd 7813 5f3d 0ea0 113e c76f 383e
00000350: 97b0 a8bd 6630 ce3d 09c0 863d 5ff4 77bc
00000360: 1c61 073d 424b 0b3e 6cad 163e 776e 7fbd
00000370: 73da 0a3e f311 cd3d 5b32 e7bd b1e6 89bd
00000380: d72d afbd 1e28 7ebe c286 aabd 391c 1dbd
00000390: 1af3 16bc 97c8 133d 075d 7dbe dd25 cd3d
000003a0: eeb2 7cbb 716d 833d c17d 51be 7ccb 9d3d
000003b0: 5925 90bd fc31 e03d 97c0 2a3e 0d46 063d
000003c0: 5577 bd3c 19ae 1cbd f7db 58be 8f23 2e3d
000003d0: 7ef8 bfbc 66c9 84be 9d9a 6fbe 9633 8dbd
000003e0: 2392 93be d38c 833c 018a 16be 51c1 51bd
000003f0: 0648 e2bc 3642 8d3c a4ec 74be 45e5 8b3e
0.10063448 0.07804629 -0.041957892 0.11582437 0.08400701 0.081472345 0.14377907 0.05099132
-0.1406676 -0.0346245 -0.11012034 0.06983139 -0.009706639 -0.24202974 -0.17798777 -0.16739967
0.009208407 -0.22293246 -0.13357508 -0.26421413 -0.045806218 -0.026315125 -0.13710693 -0.12950602
0.15036207 0.10369243 0.14908445 -0.011761082 -0.12195846 -0.16288656 0.08746541 0.07361085
-0.11496552 0.04408074 0.13947453 -0.18246211 -0.17319621 0.08734339 -0.18887486 0.028344149
-0.1241773 0.01976542 0.0035586967 -0.017579496 0.056051508 0.043710362 -0.042005107 -0.07318789
0.11164746 0.02224032 0.15315433 -0.245668 -0.10961636 0.078663565 0.10638547 0.08293333
0.01876399 0.022398995 -0.04133302 -0.23579395 -0.3034353 -0.10162301 -0.2606079 -0.16326086
0.10571803 -0.030128382 0.06603067 0.04993072 0.09019304 -0.02968255 -0.0008739784 0.07067943
-0.28538054 -0.1560843 0.053160172 -0.06775118 -0.106253296 -0.08441617 0.03880669 0.071778044
0.24127676 -0.12709327 0.0921542 0.15685497 0.06989105 -0.20271018 -0.10134034 -0.085514426
0.12773266 -0.017397245 0.0502448 0.027407423 -0.13742042 0.06690514 -0.21519907 -0.09119775
0.05218276 0.17455278 0.003227086 0.28331152 -0.165108 0.03022108 0.08646093 0.16781792
-0.07632023 0.22647192 -0.09744361 0.052495033 0.023106473 -0.005647254 0.05856133 0.15161276
-0.010668623 0.122909784 -0.0044602235 0.11643565 -0.2842615 -0.06359524 -0.063865416 0.064649984
0.0059079975 -0.02432752 0.08331069 0.09707307 0.059530877 -0.107100524 0.16095157 -0.046033837
0.12982818 -0.100508705 -0.030038608 -0.08343665 -0.11287355 -0.0896944 0.1150635 -0.030336676
0.030321587 -0.24143785 -0.25303295 0.13963218 0.06572137 0.03975563 0.18951978 -0.026936991
-0.21553311 0.029925793 0.11657382 0.1304193 0.114162914 -0.13703501 -0.05069257 0.20829767
0.06967555 -0.07695369 -0.04212362 -0.10692508 0.08723195 0.055086944 -0.03681688 -0.24432424
0.18799044 0.010795491 -0.05024094 -0.24216858 0.015348513 -0.20887195 0.0951953 -0.05338038
0.003156819 -0.037356652 -0.091540396 0.18312089 -0.36852795 -0.0780637 0.042703424 0.00397604
0.19165431 -0.19872655 -0.0015322794 -0.25416923 -0.066233665 0.076898985 0.15251625 0.093011364
0.0067204935 0.10223743 0.039299466 -0.109625585 0.15332113 -0.1286719 0.20747466 -0.24522746
0.038207997 0.04000927 -0.21908872 -0.25275677 0.019315206 0.16658239 -0.22843108 -0.1344895
-0.26703247 -0.07813319 0.17814389 -0.0141281765 0.045948956 -0.04611726 0.047570564 -0.3291972
-0.072627194 0.054461926 0.14221212 0.1801139 -0.08236807 0.10067825 0.065795965 -0.015133946
0.033051595 0.13602927 0.14714593 -0.062361207 0.13559894 0.10013189 -0.112889014 -0.06733454
-0.08553665 -0.24819991 -0.08326484 -0.038356993 -0.009213233 0.03607997 -0.24742518 0.100169875
-0.00385588 0.06417359 -0.20458128 0.07704827 -0.070383735 0.10947034 0.1667503 0.03278165
0.023128191 -0.03825197 -0.2117766 0.04251438 -0.02343392 -0.25934905 -0.23398824 -0.06894605
-0.2882243 0.016058361 -0.14701082 -0.05120975 -0.027622234 0.017243486 -0.23918396 0.27323356

out.bias f4 [10]
00000000: 9d76 533c c55b 8a3d 77e1 033e 832b 43bd
00000010: cc64 55bd 7804 6dbd ea84 903d 5794 f9bd
00000020: ff86 d53d a65f b63d
0.012906698 0.06755785 0.12878977 -0.047648918 -0.05209808 -0.05786559 0.07056601 -0.12186497
0.10426139 0.08904962
