CNN_NMIST/NN_MNIST.pth (torch, 134855 bytes, 10 tensors)

conv1.weight f4 [6, 1, 5, 5]
000000 15 65 7d 3e 90 7d a7 3d f9 20 25 3e 4e 3c fa bd
       0.24745591 0.08178246 0.1612586 -0.122185335
000010 b6 86 08 3e 30 32 18 be 0b fb 7e bd 64 0e 15 be
       0.13332638 -0.14862895 -0.062251132 -0.14556271
000020 d8 f8 e4 3d ed 02 a2 3d 28 4a 40 be db 4f 54 3e
       0.11180276 0.07910714 -0.18778288 0.20733587
000030 14 d1 74 3e 0e 6f 8e 3d 37 ac e8 3d ab fb 99 3e
       0.23907882 0.06954776 0.113609724 0.3007482
000040 0a 08 9b 3e a2 45 77 3d 12 0d a5 3e 70 9f f6 3d
       0.3027957 0.06036914 0.32236534 0.12042129
000050 85 7a a7 3e a0 33 00 bd 4c 73 61 be 5b a6 9b 3e
       0.32710662 -0.031299233 -0.22016639 0.30400357
000060 2d 1e af 3e 03 21 a0 3d 97 ac 74 3e d3 ac e6 3e
       0.3420271 0.078187965 0.23893963 0.4505373
000070 ce 97 96 3e 3f 00 7c 3e d2 7e 78 3e 6a f3 b7 3e
       0.29412693 0.24609469 0.24267128 0.35927898
000080 5a 00 2c 3e 07 ab cd 3e f0 2c 6b 3e 93 7c 6e 3e
       0.16797009 0.40169546 0.22966361 0.23289709
000090 7e 4d 0c 3e 87 07 aa bd cf 7f 23 be 33 4e 57 be
       0.13701436 -0.08302217 -0.15966724 -0.21025924
0000a0 3c 5e f8 bc f5 44 c4 be f8 1e d0 be 47 b7 85 be
       -0.030318372 -0.3833386 -0.40648627 -0.26116392
0000b0 16 8d df be 9a 61 af bd 7b 67 e3 be bf 30 bb be
       -0.43662328 -0.08563538 -0.44414887 -0.36560628
0000c0 f8 ad d8 be 5c af 0c 3d 93 08 31 bd 38 ce 93 3d
       -0.42320228 0.034346923 -0.043221068 0.072170675
0000d0 35 6e 63 bd 72 0e b2 3d 01 61 51 be 8e 69 be 3e
       -0.055525023 0.086941615 -0.2044716 0.37189907
0000e0 67 d4 0a 3e fc 71 a1 3e 8e db 5f 3e 63 44 48 be
       0.13557588 0.31532276 0.21861097 -0.19557337
0000f0 3e 66 cc 3e 29 ff b1 3e 0e b1 e8 3e c6 ab b3 3e
       0.39921755 0.34764984 0.45447582 0.3509199
000100 80 94 42 3e 61 48 8a bd 4c 2c 4b bd 6a a8 52 3e
       0.19001961 -0.067520864 -0.04960279 0.20572057
000110 83 3a 86 3e a3 67 cf 3e 1f 7a 1c be bb 8f 95 be
       0.26216516 0.40508756 -0.1528096 -0.2921122
000120 81 55 f8 3d a3 43 c7 3e 3d 0f b1 3e 1f 13 3d 3d
       0.121256836 0.3891879 0.34581938 0.046160813
000130 7a d2 f5 3d f3 ae 62 3e e5 f5 cf 3e e5 60 a8 3e
       0.12003036 0.2213705 0.4061729 0.32886425
000140 25 91 97 3e 0b 6d a4 3e b6 ad b1 3e 0d c8 88 3e
       0.29602924 0.32114443 0.34702843 0.26715127
000150 04 d8 2b 3e 15 2a ea 3e 5f 9e 78 3e 7e 4c d9 3d
       0.16781622 0.4573523 0.24279164 0.10610293
000160 e9 f9 01 bd 00 5b 91 3d 84 e4 8d 3d 3c b2 cf 3c
       -0.031732474 0.07097435 0.069283515 0.025353543
000170 36 04 3f be 6e 5b b9 be 95 df 44 bb 1c 89 0c 3e
       -0.1865395 -0.36202568 -0.0030040492 0.13724178
000180 ce f5 2b be d9 64 9d be 70 b2 35 bd 28 37 06 be
       -0.16792986 -0.30741003 -0.044359624 -0.13106978
000190 9f 37 07 3c d2 2d 2a 3e d4 81 c5 3d 52 1d e4 3d
       0.008253007 0.16619042 0.096439034 0.11138405
0001a0 99 69 98 3e 27 a9 9c bd 67 aa 62 3e ae 8e 55 3d
       0.29768065 -0.07649451 0.22135316 0.052138023
0001b0 ac ff e5 3e fa c0 6a 3e 71 00 2b be b3 eb 5e be
       0.44921625 0.22925177 -0.16699387 -0.217696
0001c0 f7 b0 81 bc 58 cb c1 3e 02 87 e6 3e 68 5b b0 be
       -0.015831454 0.3785045 0.45024878 -0.34444737
0001d0 27 e1 08 3d 77 af c2 3e 06 0d ee 3e 25 9b af 3e
       0.033417847 0.38024494 0.4649431 0.34298053
0001e0 0e 04 67 3d d8 6f 45 3e 88 6d 3d 3e f8 44 15 3d
       0.05640035 0.19280946 0.18498814 0.036442727
0001f0 5d 70 48 3e 4f a6 38 3d 45 23 c5 3e 7b 6e c6 3d
       0.19574113 0.04508048 0.3850347 0.09689041
000200 6e 28 21 3e 0d 9c af 3e 95 04 62 3e bf f1 bc 3e
       0.15738079 0.34298745 0.2207206 0.36903188
000210 2b f9 97 3e bb e5 1f 3e 1b 5d b0 3e d7 a8 0f be
       0.29682288 0.15614979 0.34446034 -0.14029251
000220 ee bb f3 bd 9e 5f 7d 3e 95 b1 a9 bd 11 c8 40 3c
       -0.11901079 0.24743506 -0.08285824 0.01176645
000230 d2 c2 90 be 1d b5 2b be bb f5 bc be a8 a1 8d ba
       -0.28273636 -0.16768308 -0.36906227 -0.0010805624
000240 ad d9 c6 bd a7 e9 8f be 49 1a a4 be d5 e6 7f be
       -0.09709487 -0.2810795 -0.32051304 -0.24990399
000250 a5 f4 9a be ec 96 b8 bd
       -0.30264774 -0.09013161

conv1.bias f4 [6]
000000 a4 a8 cf ba 44 a6 4d 3e 71 01 5e ba d3 f5 59 38
       -0.0015843106 0.20082957 -0.0008468843 5.1965773e-05
000010 d3 09 7f b8 d2 25 e8 ba
       -6.0805887e-05 -0.0017711467

conv2.weight f4 [12, 6, 5, 5]
000000 2a 75 c8 bb f0 a9 ca bd 48 a0 fd bd 5e 3c 99 bd
       -0.0061174827 -0.09895694 -0.12384087 -0.07482217
000010 d3 b8 12 3d f8 2f 80 3d 16 0f 70 3c 39 06 9a 3d
       0.035820793 0.06259149 0.014652034 0.07520718
000020 60 d6 9e 3d 33 23 56 3e 98 77 c4 3d f1 04 72 3c
       0.077557325 0.20911865 0.09593123 0.014771686
000030 a4 21 27 3e f1 b1 12 3e 0a 90 16 3e 5a ce fd 3c
       0.16321427 0.14325692 0.14703384 0.030982185
000040 60 e9 3b bc 56 94 38 3d aa 34 a6 3d 7c 15 c9 3d
       -0.011469215 0.04506334 0.081155136 0.09818551
000050 d8 21 5c 3d 81 c1 59 3c 7f 91 87 bd 16 0a a1 bd
       0.053743213 0.013290764 -0.06619548 -0.07863252
000060 3c 46 56 3c 90 05 1a 3d 1e fb bd 3d 39 0e 93 3d
       0.013078269 0.03760296 0.092764124 0.07180447
000070 04 bb ae 3d 38 e8 c8 bb e2 a9 bf bd 57 59 1e bd
       0.08531764 -0.0061311983 -0.093585745 -0.03865942
000080 38 b4 ed bd f6 b7 da bd 42 55 3b bd 5b dc b9 bb
       -0.116066396 -0.10679619 -0.045735605 -0.0056720204
000090 bb 76 29 bd d6 4e 91 3d 4e 18 04 3e 32 68 84 3e
       -0.041372996 0.07095115 0.12899897 0.25860745
0000a0 5b 13 c1 bd 61 6f 30 3e ef 26 8e 3e ba 5d 5e 3e
       -0.0942752 0.17229988 0.2776408 0.21715441
0000b0 23 09 cf 3d 47 aa 23 bd 9b 37 60 3d 50 52 59 bc
       0.101091646 -0.03995731 0.05474053 -0.013264254
0000c0 9f a5 30 bd 2a a7 07 3c cc 9e 26 bd 2e 8b 25 bd
       -0.0431267 0.008279601 -0.040678784 -0.040415935
0000d0 ee 61 36 bd b1 4e 0a be cf 8b d8 bd e0 dd b5 3d
       -0.044526987 -0.13506581 -0.105735414 0.0888021
0000e0 a7 b6 03 3c 71 1d 98 bc 35 47 4f bc 89 ee df 3d
       0.008039153 -0.018568726 -0.012651254 0.10934169
0000f0 eb eb 34 3e cb 14 56 3e b5 31 ff 3d 45 3d e5 3d
       0.1766812 0.2090637 0.12460653 0.11193327
000100 c6 97 47 3e f3 b1 8c bd 59 93 a2 3b c1 a9 05 3d
       0.1949149 -0.068698786 0.004961413 0.032632593
000110 7c 48 19 bd 54 6b 40 3d 95 11 3f bc 2d 7e 3f 3d
       -0.037422642 0.046977356 -0.011661907 0.04675119
000120 d3 e1 58 3c e2 36 1c be 1f 44 02 be eb 1f a4 3d
       0.013237434 -0.15255311 -0.12721299 0.080139
000130 b8 35 e7 3d fe 8a d0 3d e9 f6 7e 3c 1c c8 12 be
       0.11289543 0.10182761 0.015561798 -0.14334148
000140 1f 26 2b bc 4c 6c 19 be 88 6d cc bd 58 19 38 be
       -0.0104461005 -0.14982718 -0.09981829 -0.17978418
000150 52 b6 fe bd b2 4d 29 38 33 85 a9 3c a5 cc a1 3d
       -0.124371186 4.03651e-05 0.020693397 0.07900361
000160 d1 3f 84 3e 4d 76 5b 3e 2d 68 d6 bc 2e d5 08 3e
       0.25829938 0.21431847 -0.026172722 0.13362572
000170 4c 66 72 3e 36 95 81 3e 0a c2 0a 3e da e4 02 3d
       0.23671836 0.2530915 0.13550583 0.03195653
000180 c9 0c 01 3e cd d5 4a 3d 8f 18 ce bd fb 63 1a bc
       0.12602533 0.049520303 -0.10063278 -0.009423251
000190 fe 6a 2b be 08 ce 35 be f0 00 66 be 40 3b ac bd
       -0.16740033 -0.17754376 -0.22461295 -0.084097385
0001a0 09 22 39 3b a3 69 c7 bd 0c ad ae bd 0e f8 00 3d
       0.0028249046 -0.097369455 -0.085291 0.031486563
0001b0 fe 86 c8 3d 3c c5 ec 3d 44 b9 77 3d 42 7c ca 3c
       0.09791373 0.11561057 0.060479417 0.024717454
0001c0 38 90 87 3d c2 8d 9a 3d b8 e6 06 3e f7 cb b4 3d
       0.066193044 0.075465694 0.1317395 0.08827966
0001d0 ba 34 9f 3c 3a a0 dc bc 39 7d ff 3c 7b 84 27 3d
       0.019434322 -0.02693187 0.03118764 0.040897828
0001e0 8c 68 de bd 7b a3 54 bd 45 c7 02 be 7f d0 b4 bd
       -0.108597845 -0.05191372 -0.12771328 -0.0882883
0001f0 0b 58 bf bd 7a 2e 89 bc a9 07 fc 3d 58 57 ef 3d
       -0.09342965 -0.016745795 0.123061486 0.116865814
000200 2d b7 a1 3d 22 9e 92 bd ef 33 c4 bd ed 72 6c 3d
       0.07896266 -0.07159068 -0.09580218 0.05772679
000210 a8 4c 90 3b 5b 16 9a bc f1 d2 c1 3a 3f 63 14 3e
       0.0044036694 -0.018809488 0.0014787597 0.14490984
000220 40 13 59 3e f0 12 d9 3d 80 9f 26 3e 9f 6e 53 3e
       0.2119875 0.10599315 0.16271782 0.20647667
000230 2f 93 d7 3b 42 7e 4e 3e 47 f1 9b 3e 97 8f a5 3e
       0.006578825 0.20165351 0.30457518 0.32336113
000240 0b 6a 19 3e 58 a9 3e 3d aa ac 9e bc a0 9d 1f 3d
       0.14981858 0.046548218 -0.019369442 0.038968682
000250 d4 83 3f bd 31 67 b9 3d 7d f3 c5 3c f5 d7 c8 bb
       -0.04675658 0.09052885 0.024163956 -0.0061292597
000260 f7 10 1a 3d 41 1d 45 bc cb 68 09 3e 2d 1b dc bc
       0.037613835 -0.0120309 0.13418882 -0.026868427
000270 0d ff b7 bc 6c 55 a3 bd 17 94 57 be 5f e8 d9 bd
       -0.022460485 -0.07975277 -0.21052586 -0.106400244
000280 56 18 fe bd 03 d0 d2 bd e1 19 58 be ae 89 18 be
       -0.124069855 -0.10293581 -0.21103622 -0.1489627
000290 1e a6 5f 3d 13 f4 5e 3c 78 0f aa 3c cb 20 4a bd
       0.05460178 0.0136079965 0.02075933 -0.04934768
0002a0 0d 30 22 3c e5 f2 8f 3d 59 10 42 3d f0 a6 5d 3b
       0.0098991515 0.0702875 0.04737887 0.0033821426
0002b0 e0 2a 7c 3d 95 59 0f 3e 60 8f 81 3b 76 aa f2 3c
       0.061564326 0.13999017 0.003953859 0.029622298
0002c0 35 3a fd 3d 93 26 22 3e b2 1f 22 3e de 39 7b 3e
       0.12364618 0.15835027 0.15832403 0.24533793
0002d0 c5 4a 85 3d b5 64 8d 3d 55 d3 7f 3e 04 ff 3e 3e
       0.06508402 0.06903974 0.2498296 0.18651968
0002e0 2e 90 21 3e 0e 43 7b 3e 22 84 3b 3e f0 ba 80 3e
       0.15777656 0.24537298 0.18312123 0.25142622
0002f0 88 66 91 3d c9 20 82 bc 5b 50 38 3e ed 59 00 3e
       0.070996344 -0.015884774 0.17999403 0.12534304
000300 18 a2 bb bc 38 29 e6 bd 72 32 92 3c a1 3a 04 bd
       -0.02290444 -0.112383306 0.01784632 -0.032282475
000310 87 0e 23 bd 4b 70 8c bd 0a 54 8a 3d 37 96 a0 3d
       -0.039808776 -0.06857356 0.067543104 0.07841151
000320 9f ac 83 3d ad 50 2c 3e 3d 6b 29 3e c8 52 f5 3b
       0.06429409 0.1682765 0.16544814 0.007486675
000330 69 6d 17 3e 6f 79 86 3c 64 a0 cc 3c 7f 42 f6 bd
       0.1478783 0.016415326 0.024978824 -0.12024402
000340 df b2 c0 bd 28 98 ed bd c5 7e 13 3d 02 59 87 bc
       -0.09409117 -0.11601287 0.03600957 -0.016521934
000350 d5 06 e3 bd da 3b 40 be 74 24 26 bd 29 c1 fb 3c
       -0.110852875 -0.18772832 -0.04056211 0.030731754
000360 bc 5f cd bd b8 39 8d bc e1 b6 7b bd 0c 37 bc bc
       -0.100280255 -0.017239437 -0.061453704 -0.022975467
000370 a3 f7 94 3d 97 10 cf 3d 02 a2 68 3d fd c8 48 3d
       0.072737955 0.10110586 0.056795128 0.049019802
000380 ea 16 4b 3d eb a1 03 3e f5 1f 43 3e bb 53 69 3e
       0.0495824 0.12854736 0.1905516 0.22785847
000390 e3 f8 f3 3d 35 7a 5b 3e ca ae c8 3d c2 10 a7 3d
       0.11912706 0.21433337 0.09798963 0.08157493
0003a0 65 25 75 3e f5 89 28 3e 14 62 39 3d 24 5b 39 3e
       0.23940046 0.16458876 0.04525955 0.18101174
0003b0 20 45 25 3e 5a 94 ea 3c 2c 11 66 bd 89 f6 68 be
       0.1613965 0.028635193 -0.05616872 -0.22750296
0003c0 bd 32 ba 3c ae a8 96 bc 52 53 0c be 30 94 78 be
       0.022729272 -0.01839098 -0.13703659 -0.24275279
0003d0 6b 1c 43 be d7 34 68 bd 0d b8 33 be 4c 5a 87 3c
       -0.1905381 -0.056691017 -0.17550679 0.01652255
0003e0 0b 95 8b 3b c0 8e 85 bc a5 ee eb 3d a0 2c 64 3d
       0.0042597107 -0.01630342 0.11520127 0.05570662
0003f0 7d a3 11 3e d8 bd 97 3d 4c 48 d4 bb 11 38 bb 3b
       0.14222522 0.07409257 -0.006478345 0.0057134707

conv2.bias f4 [12]
000000 e1 18 e2 bd 44 81 16 3d 09 72 e9 3d db 16 b7 bc
       -0.110399015 0.03674437 0.113987036 -0.022349766
000010 94 0b 1c bd 2d d4 c3 bd bc fd b8 bc dc 5b 12 3d
       -0.03809698 -0.09561954 -0.022581927 0.035732135
000020 e2 8f 91 3d f6 2c 03 3b f6 03 bd 3d 4e 5b e7 3c
       0.071075216 0.0020015812 0.09229271 0.02824178

fc1.weight f4 [120, 192]
000000 90 61 a6 3d d5 6f c3 3d 86 df b7 bc e9 ff 05 bb
       0.08124077 0.09542815 -0.022445451 -0.0020446724
000010 54 c3 db bc a0 c9 d7 3d 8c dd 96 bd d2 b2 31 3d
       -0.026826538 0.10536504 -0.073664755 0.043383427
000020 6c 91 91 3c ab be 2f bc f8 49 14 bc b6 c5 8b bc
       0.017769538 -0.010726611 -0.009050839 -0.01706205
000030 b5 a7 d8 3c 55 5e 83 3d 40 e2 90 3c 78 cb c1 3d
       0.026447156 0.06414477 0.01768601 0.09462637
000040 5d 16 a6 3d 6f 70 2f 3e a8 72 aa 3e ff 2e 03 3d
       0.08109734 0.17132734 0.332906 0.03202724
000050 3f cf 09 3e 3a d5 f0 3d 35 9e a6 3d 87 c9 a4 bd
       0.13457964 0.1175942 0.08135644 -0.08046251
000060 a5 f3 48 bb 4a db 21 bd 65 de 3a bb 35 ac 27 bd
       -0.0030662802 -0.03951577 -0.0028513905 -0.040935714
000070 ee 28 b2 3d 06 5b 06 3d ff 95 ef bc 7a f0 e6 3b
       0.08699213 0.03280165 -0.029246328 0.00704771
000080 29 bf 2e bd 1b 78 cb bd c5 91 24 bd e0 bc ea bc
       -0.042662773 -0.09935018 -0.04017808 -0.028654516
000090 70 ab 0e bd 2c e4 06 be 15 c1 17 3d c6 a7 b4 bc
       -0.034831464 -0.13172978 0.03704937 -0.022052657
0000a0 bd 6e 42 bd 3a 0a a6 bc 0e 84 6d 3d e8 7f 9b bc
       -0.04746889 -0.020268548 0.057987265 -0.018981889
0000b0 8a 3d 04 3e eb 97 52 bb cc 0b aa 3c f7 e8 9f ba
       0.129141 -0.0032134007 0.020757578 -0.0012200166
0000c0 e1 67 02 3e 21 a5 ab 3b 85 01 c0 3d 50 b8 6b 3d
       0.12734939 0.0052381908 0.0937529 0.05754882
0000d0 4e 9c 83 bd 32 db f9 bc 83 ea 05 bb 7f 22 7c bd
       -0.06426297 -0.030500028 -0.002043397 -0.061556336
0000e0 4e ab 83 3d 44 b2 9f bd ab 49 36 bb 2e 3b f9 bc
       0.06429158 -0.07797673 -0.0027814906 -0.030423727
0000f0 2c 78 fe bc 5f 8e 95 3c 13 1a c0 3d be 1a 1f bd
       -0.031063162 0.018256364 0.09379973 -0.038843863
000100 8f af 25 bd b1 c8 1f bd 28 a1 00 3e 15 f8 49 bd
       -0.04045063 -0.039009754 0.12561476 -0.049308855
000110 c3 6a 40 bd 0a 98 c8 bc 4c a1 aa 3d 45 05 d1 bc
       -0.046976816 -0.02448656 0.08331546 -0.025515208
000120 61 0b bd 3c c9 e6 e9 bb fa ad ef 3b 88 24 d4 bd
       0.023076715 -0.0071381074 0.007314441 -0.1035853
000130 96 a5 22 bd cb a7 bb 3d 85 3f 5c 3d 40 c5 5a 3d
       -0.039708696 0.09162863 0.053771514 0.05341077
000140 37 d0 d6 bd 60 fc 09 3e 07 0e bf 3d cc d9 a9 bd
       -0.104889326 0.1347518 0.093288474 -0.082934946
000150 1b dd c9 3d 59 36 4e 3b c8 6b af bc 84 39 80 3c
       0.09856626 0.00314655 -0.021413699 0.015652426
000160 29 4f 9a 3b dd 65 43 bd b7 1b 4f bd 68 14 b5 bc
       0.0047091437 -0.047704566 -0.05056354 -0.022104457
000170 a8 6a 19 3d 3c 49 18 3d a3 72 71 3d 3b 90 43 3d
       0.03745523 0.037179217 0.058947217 0.04774497
000180 40 a5 f7 3c 44 83 17 bd 26 1d 69 3d ec 5f 87 bc
       0.030230165 -0.03699042 0.056912564 -0.016525231
000190 da cc 36 bd 68 a6 a0 3c e1 1b 33 bd a6 ce fe bb
       -0.044628955 0.019610599 -0.04372776 -0.0077760993
0001a0 7a e0 b8 bd b6 68 5c bd ee 6a 08 bc 55 c4 8b bd
       -0.090271905 -0.053810798 -0.008326275 -0.06824557
0001b0 5b 04 3b 3d 8b b5 c9 3d 81 ab 89 3d 4a b5 a4 3d
       0.04565845 0.0984908 0.06722165 0.08042391
0001c0 d1 5d ba bd c0 29 0c bd e4 c6 9a 3d 62 3e 1d 3d
       -0.09099925 -0.034219503 0.075574666 0.03838957
0001d0 f0 84 36 bd ae 0e 29 3d fb f0 c6 bc cc f4 49 3d
       -0.044560373 0.041273765 -0.02428483 0.049305722
0001e0 21 8e b6 bd 44 0e 05 bd b8 9f 44 bd d3 75 46 bd
       -0.08913828 -0.032484308 -0.048003882 -0.04845221
0001f0 8e 3a fc bd d1 2f d7 3d ef 3e 88 3d 30 ff 76 3c
       -0.12315856 0.10507167 0.06652629 0.01507549
000200 b1 19 c2 bd 53 8f 6d bd 30 ae 20 3d 87 ed 8f bc
       -0.094775565 -0.057998013 0.03922862 -0.017569317
000210 a5 98 ca bd df e9 68 3c 8f 06 d1 3a 1e dc 51 3c
       -0.09892396 0.014215915 0.0015947389 0.012808828
000220 4f ae 18 bd 8b dc 25 3d 12 03 88 3d 86 ee 48 3d
       -0.03727561 0.04049353 0.066412106 0.0490556
000230 b8 d3 25 bd 15 f6 81 bd a4 d6 c1 3c fb c7 b9 bc
       -0.040485114 -0.063457645 0.023661919 -0.022678366
000240 69 12 14 3e a5 84 51 3d 13 21 a9 3c 74 9d 8d bd
       0.14460148 0.05115189 0.020645654 -0.069147974
000250 5b 42 30 be fa 3a 99 bd 36 70 a6 3d 02 1b a9 bd
       -0.17212813 -0.07481952 0.08126871 -0.082571045
000260 d4 80 a1 bd 91 f5 e5 bb 59 95 cb 3c c3 4a 47 bc
       -0.078859 -0.007017799 0.024851488 -0.012163821
000270 f1 9d 98 bd a9 c7 12 3d ce 0b 4d 3d a8 24 28 3c
       -0.07452 0.035834942 0.050060086 0.010262646
000280 55 30 ca bd 29 94 0c 3b 6d c4 5f 3d 0e 3a 53 bd
       -0.098725 0.0021450615 0.054630686 -0.051569037
000290 97 df 86 bd c8 b3 8b 3c a5 ae 81 3c c4 0e 7e bd
       -0.06585615 0.0170535 0.015830347 -0.0620258
0002a0 4e c1 23 3c 4b 3e 29 3d 72 c5 91 bd 1f c8 7f bc
       0.009994818 0.041319173 -0.07117738 -0.015611677
0002b0 a2 6c aa 3d 55 03 75 bc c9 b3 57 3d 64 80 fa 3c
       0.08321501 -0.014954408 0.05266169 0.0305788
0002c0 9a 78 06 bd e7 5f 6f 3d 8f d2 9c 3d c4 dc ee bc
       -0.03282986 0.05844107 0.07657348 -0.029158004
0002d0 47 75 31 be bc f1 81 3d 86 1b bf 3d a8 09 a2 bd
       -0.17329894 0.06344935 0.093314216 -0.07911998
0002e0 aa 6c 0c be ff e7 05 3d 0b 68 e2 bb 67 e7 db 3b
       -0.13713327 0.03269195 -0.0069093755 0.006710935
0002f0 12 f0 07 bd 9e f4 91 3c b3 b7 a6 3d 4b 6f cc bb
       -0.033187933 0.017816838 0.081405066 -0.006238853
000300 be e9 a3 bd 70 3b 36 3c 71 e3 7f 3d e3 3a 84 bd
       -0.08003567 0.011122569 0.062472764 -0.06456544
000310 a3 21 cb 3c 4c 28 f6 3c 59 eb a0 bc 9a f4 11 bd
       0.024796313 0.030048512 -0.019643473 -0.03563366
000320 23 f5 59 3d 82 d3 82 bd 94 fe 94 bc ca a4 47 3d
       0.053212296 -0.06387998 -0.018187799 0.04874114
000330 5c 29 a0 3c 39 63 a4 3a e5 a6 89 bc 95 d8 26 bd
       0.019550972 0.0012541778 -0.016803214 -0.040733892
000340 ae 52 9c 3d d1 e4 0f bd ce c7 98 bc 5b 3d 9a ba
       0.076329574 -0.035130326 -0.018649962 -0.0011767553
000350 eb 1c 19 bd 61 26 68 3d 9d 07 d7 3d ea b5 9b bc
       -0.037381094 0.056677226 0.10499499 -0.019007642
000360 6b ef c7 3c 5c ea bf 3d 38 82 cc bc c9 1f 3c bd
       0.024406156 0.093708724 -0.024964437 -0.04592875
000370 62 ff f5 3d 2b 88 5e 3c c9 0a 32 3d c5 c3 af 3d
       0.12011601 0.01358227 0.043467317 0.08582262
000380 30 5b b2 bc ea 55 80 bd 27 15 6a bd 17 f9 48 bd
       -0.021771997 -0.06266387 -0.05714908 -0.049065676
000390 c2 fe 73 bd 6a 96 91 3d ff 35 92 3d b8 d2 c6 3c
       -0.059569128 0.07108767 0.07139205 0.0242704
0003a0 ce 22 2a 3d 64 ab d1 3b f0 4d d4 3c 81 0c 35 bd
       0.0415371 0.006398605 0.02591607 -0.044201378
0003b0 c6 56 00 3e d4 dc 7e 3c 64 bc ef 3c d4 40 81 3c
       0.12533101 0.015555579 0.029264636 0.015777983
0003c0 44 8e 65 3d b6 f0 18 bd fb 21 b2 bc b7 33 9b bd
       0.05604388 -0.037338935 -0.021744719 -0.07578223
0003d0 4d 34 86 3d 99 8f ec 3c c2 50 83 3d 7c 48 2f bd
       0.06552944 0.028877066 0.06411888 -0.042793736
0003e0 29 f2 95 bc 6e 37 6f 3d c3 0f f5 bc 62 4e 3e 3c
       -0.018303948 0.05840247 -0.029914742 0.011615368
0003f0 c8 4d 83 bb bd 18 93 bc b0 56 93 bd c6 56 ae 3d
       -0.004007075 -0.017956132 -0.07194269 0.085126445

fc1.bias f4 [120]
000000 bb 8c 30 bd 86 a5 37 3d 66 a9 7c 3c 28 60 e4 bc
       -0.04310296 0.04483559 0.015421247 -0.027877882
000010 d6 18 58 bd d5 4d 4d 3d fd 0b bf bd 54 87 c7 bd
       -0.05275806 0.050123055 -0.093284585 -0.09742609
000020 98 33 74 bc ac 92 76 bd fc 23 bd bb 11 0b d0 3d
       -0.014904879 -0.06019847 -0.005772112 0.10158361
000030 1e 2b 65 bd 1a 49 dd bd c8 a1 af bd 97 33 09 3d
       -0.055949323 -0.10804959 -0.08575779 0.033496466
000040 6d 3b 6e 3c f2 3b 55 3b 20 ed a3 bb 1d af 4d 3c
       0.014540535 0.003253695 -0.0050026327 0.012553957
000050 3d fb 84 3d 0a 08 f6 3d 7e 84 9d 3d 3c 8b 82 3c
       0.064932324 0.12013252 0.076912865 0.015935533
000060 3c 74 53 bd 0f f1 5b 3d f9 2c 12 bd 2f e7 60 bd
       -0.05162452 0.05369669 -0.03568742 -0.054907974
000070 d1 8b 93 3d 28 40 1d 3b 79 e1 34 3c c4 fe b3 bd
       0.07204402 0.002399454 0.011040085 -0.08788827
000080 42 03 c3 bc ff e7 82 bc f2 14 fe bc af 09 1f 3d
       -0.023805264 -0.015979765 -0.031015847 0.038827594
000090 6b 50 3a 3d 1f cb 8f 3c 0a 70 8b bd a4 be d9 3d
       0.04548685 0.01755291 -0.06808479 0.10632065
0000a0 28 9a 22 bd e1 a8 3c 3d 01 f4 36 bd a2 0f a4 bd
       -0.039697796 0.046059493 -0.044666294 -0.08010794
0000b0 81 1c 89 bb d5 08 e4 bc 5a 86 7d bc 40 a7 45 bd
       -0.004184306 -0.027836243 -0.015473926 -0.048255205
0000c0 92 3c c4 3c 91 d7 88 bd 72 9a 04 bc 06 b0 58 bd
       0.023954663 -0.06681741 -0.008093463 -0.052902244
0000d0 2a 67 9e 3d 8e 90 5b bc 14 77 86 3d 0f a5 42 3c
       0.07734521 -0.013401164 0.06565681 0.011880173
0000e0 4a 3a 96 3b c0 13 cd 3d 9e 33 4f bd b0 11 8b 3d
       0.0045845853 0.10013533 -0.050586335 0.06790483
0000f0 30 ea 01 bc 61 e9 88 3d d8 59 8e bd 0a 20 f4 3c
       -0.00792937 0.066851385 -0.0695073 0.029800434
000100 ee aa a0 bd 6b 5a 65 3d 9b 53 83 3c 2c dc 79 bd
       -0.07845102 0.055994432 0.016031077 -0.061000988
000110 4c bc 2e bd 8e e1 db 3c 3b 0c 21 bd 2a f3 11 3d
       -0.042660043 0.026840951 -0.039318305 0.03563229
000120 20 66 0f bb be 44 c3 3d b7 49 12 3e 9b aa 54 bd
       -0.002188094 0.09534596 0.14285932 -0.051920515
000130 13 a1 7b 3d 5e ff 38 bd e6 aa 2a bd f2 d1 b9 bc
       0.06143291 -0.045165412 -0.041666888 -0.022683118
000140 90 db 8e bd 0e 36 76 3b 07 ca f7 bc 5d e4 3f 3d
       -0.06975472 0.003756884 -0.030247701 0.046848644
000150 d5 1f 85 bd 81 2d da 3d 32 b0 36 bd 02 9b 48 3c
       -0.06500212 0.106532104 -0.044601627 0.012243988
000160 7a 42 67 bd 2e 22 bd bc d4 93 b3 bc 36 c1 98 bc
       -0.05645988 -0.023087587 -0.021921076 -0.018646818
000170 15 3f a5 bc 52 bc 6d 3d 97 4c f1 3c 92 87 f3 3d
       -0.020171681 0.058040924 0.029455466 0.11891092
000180 35 ad 6d bc 9e be db 3c 37 0b ae bc 5e 97 30 bd
       -0.014506628 0.026824292 -0.021245582 -0.043113105
000190 3e 04 ad 3c 58 f9 8d 3c 0c c4 2d 3d ba 25 25 bd
       0.021120187 0.01733081 0.042423293 -0.040319182
0001a0 9c dc a9 3c 97 1b 4d 3d c3 58 cb 3d 6e 4c 45 bd
       0.020735078 0.05007514 0.09929039 -0.048168592
0001b0 89 cc 75 3d a4 24 8c 3d af 96 89 bc fd 1d 8e bc
       0.060009513 0.06842926 -0.016795484 -0.017348284
0001c0 6c 48 6e 3d 74 cd 44 bd f5 e8 65 3b 69 42 6e 3d
       0.058174536 -0.048047498 0.003508148 0.058168802
0001d0 03 91 ef 3c 78 02 09 bd 07 e7 87 3d 97 05 0a 3d
       0.029243952 -0.03344962 0.06635862 0.033696737

fc2.weight f4 [60, 120]
000000 10 5e 5c 3d 9b 19 3b be b2 8c 86 bd 81 82 e8 bb
       0.053800642 -0.18271486 -0.06569804 -0.0070956354
000010 ec 10 80 3c 76 a0 71 3d 27 11 b3 bd ce c1 91 bd
       0.015633069 0.058990918 -0.08743506 -0.071170434
000020 c4 88 1d be 38 5b 5e 3c 05 52 86 bd f1 3f d5 bc
       -0.15384203 0.013571553 -0.06558613 -0.026031466
000030 5d 89 bf 3c df 5b c7 3d 72 71 ff 3c 65 b8 26 3d
       0.02338093 0.0973432 0.031182025 0.040703196
000040 07 90 10 be 69 22 9a 3d cb 97 91 bd f5 e8 06 3e
       -0.14117442 0.075260945 -0.0710903 0.13174804
000050 34 a4 af 3d 7f 83 68 bd 58 ed ad bc ff 29 5f 3c
       0.08576241 -0.05676603 -0.021231338 0.0136208525
000060 1a 9a c5 3d e8 45 9b 3c 25 f8 28 3e 0f 75 9c bd
       0.09648533 0.018954232 0.1650091 -0.07639515
000070 a8 5b a2 bd 03 e2 16 3e 9b 30 b3 3d 69 f6 2b be
       -0.07927638 0.14734654 0.08749505 -0.16793217
000080 b8 a5 b4 3d 9a 2e af 3d 94 30 1c 3d 84 a9 8e bd
       0.08820671 0.085538104 0.038132265 -0.06965926
000090 7c 1d 09 bd 14 d0 44 3d 8a 12 c3 3b 03 70 8a bd
       -0.033475384 0.04805 0.0059531378 -0.06759646
0000a0 48 a8 bb 3d 69 19 cb bd 94 4c ec bd 01 4d 13 3d
       0.091629565 -0.09916956 -0.115380436 0.03596211
0000b0 a4 d8 75 3d 77 f7 5b 3d 93 fd c5 bd 28 51 9a bd
       0.060021058 0.053702798 -0.09667506 -0.075350106
0000c0 72 2e d7 bd 70 dd 74 3d 54 ee 87 bd b8 17 e0 3d
       -0.105069056 0.05978149 -0.06637254 0.10942024
0000d0 13 21 db 3d b5 3f 70 3d 90 ca 9d 3d 28 74 a4 bd
       0.10699668 0.058654506 0.07704651 -0.080299675
0000e0 d3 b5 0f bd 7d 4d 6c bd fc ed 95 3c 30 31 02 3e
       -0.03508551 -0.057691086 0.018301956 0.12714076
0000f0 ff 0f ec 3b 0a 66 6e bd 7a ff 83 3d 2b 1f 86 3c
       0.0072040553 -0.05820278 0.06445213 0.016372284
000100 c9 4e ca 3d cf 11 31 3d dd 57 c4 3d 46 de 0b 3e
       0.09878308 0.043229874 0.09587071 0.1365901
000110 09 6a da 3d 9a 9a e8 bd 38 1e d3 bc 8f 95 a8 bc
       0.10664756 -0.11357613 -0.025771245 -0.020579128
000120 98 36 50 3d 6a 06 75 bc 2f 85 9a 3d 5e dd 47 3d
       0.050833315 -0.0149551425 0.07544934 0.048795097
000130 a5 75 c1 bd e5 cc a1 bd 34 0b 2e 3d 04 61 00 3e
       -0.09446267 -0.07900409 0.042491153 0.12537009
000140 e4 2b 2b 3d 1b 1b 79 bd 8f 11 f8 3d 85 25 5a be
       0.041789904 -0.060816865 0.12112724 -0.21303375
000150 7d 51 1a bd f4 7c d4 3d 6c 8d ad bd 41 fe 8a bd
       -0.03767537 0.103753954 -0.0847424 -0.06786776
000160 21 67 90 3c 08 8b ae 3d 32 d4 0d 3e d4 1e a9 3d
       0.0176273 0.08522612 0.13850477 0.08257833
000170 d6 11 77 bd 6f 00 81 bd 1c ae c0 3d f8 ad b0 3c
       -0.060319744 -0.06298911 0.09408209 0.02156733
000180 8a ae ba bc 9f 2a c6 3d a3 cb b1 bd ae 1f 36 bd
       -0.022788305 0.09676098 -0.08681419 -0.044463806
000190 c8 d0 2b 3d bd 3d cb 3d 96 5e 1e bd ea b0 6c 3d
       0.041947156 0.09923885 -0.038664423 0.057785906
0001a0 ae 39 41 be f9 fe eb 3d 98 9a 40 be 6f 16 f1 3d
       -0.1886966 0.115232415 -0.18808973 0.11771857
0001b0 1a 89 95 bc ee bf 4e bd 79 b0 c5 bd 6f 67 16 3e
       -0.018253852 -0.050476007 -0.096528 0.14687894
0001c0 86 13 e9 3d 2f c9 b5 ba 5d ec e1 bd a0 d0 4a 3c
       0.11380677 -0.0013869161 -0.11031411 0.012378842
0001d0 50 76 5b bd d8 1e 96 3c ce 87 98 bd 94 de 74 3d
       -0.05357963 0.018325254 -0.07447778 0.05978258
0001e0 bd 6e b4 bd b5 32 6b bc 57 c0 b5 3d a7 11 72 bd
       -0.08810184 -0.014355351 0.088745765 -0.059098866
0001f0 9a 7b 29 bd aa 56 34 3d 28 a5 94 ba 4a b4 c8 3c
       -0.04137764 0.04402796 -0.0011340724 0.024500031
000200 44 ee 1a 3d db 3b c4 3d 91 b9 61 3b dd ca 58 bd
       0.037824884 0.09581729 0.0034442882 -0.05292784
000210 35 94 51 3d d2 e1 08 bd a7 81 cb bd 39 08 19 3d
       0.051166732 -0.033418484 -0.099368386 0.037361357
000220 88 9b 4a 3e 91 48 1b 3d c1 60 42 3e a4 0c 0d 3d
       0.19785893 0.037911 0.18982221 0.034435883
000230 58 72 fd bd 38 f2 3c 3d 18 b1 20 bd 68 f1 06 3e
       -0.12375325 0.046129435 -0.03923139 0.13178027
000240 c2 33 38 bc 30 18 c9 3b 50 43 86 3d 76 9c f8 3c
       -0.011242809 0.0061369166 0.065558076 0.030348044
000250 f8 29 80 3d ed d4 25 be 57 62 15 3d a6 43 6d 3d
       0.06258005 -0.16194506 0.036470737 0.057925843
000260 bc 23 ed 3c 7f 04 18 3d dd 88 03 be ed 82 8d 3d
       0.028947704 0.037113663 -0.12845178 0.06909738
000270 db 66 3d 3d 96 cf 34 bd 96 4f 13 3c 60 08 38 3d
       0.04624067 -0.044143282 0.008991143 0.044929862
000280 bf a2 02 bd a3 e1 1f bd ed 3b 13 3e c9 13 aa 3c
       -0.031893488 -0.039033543 0.14378329 0.020761387
000290 4a e3 9d bd 5d 3e 23 be 4b e4 3b bd 1b 6e a9 bb
       -0.077093676 -0.15941758 -0.045872014 -0.0051705963
0002a0 1f 46 e1 3d 6b 32 9a bc 24 f1 66 3d 48 16 b6 bb
       0.10999703 -0.01882287 0.056382313 -0.0055568554
0002b0 da a5 a7 3d 22 0b a9 3c 02 0d d2 bc b7 a1 41 bc
       0.081859306 0.020635191 -0.025640968 -0.011818341
0002c0 c7 42 b8 3c b2 2e 00 3e 8a 68 b4 bd d8 7b 16 3c
       0.02249278 0.12517813 -0.08809002 0.0091848
0002d0 e1 52 09 3e 3e 92 6e 3c 76 1f 71 3d 0b 9b a2 3d
       0.13410522 0.014561234 0.058867894 0.07939728
0002e0 e1 79 2e be a0 53 5f 3e 1b 11 78 bd 04 59 43 bc
       -0.1703868 0.21809244 -0.060563188 -0.011923078
0002f0 02 05 26 3d 6c 06 07 bd 6e 1f b4 3d bf ec 12 be
       0.04053212 -0.03296511 0.08795057 -0.14348124
000300 a2 f3 d2 3d 71 9b fd 3a a4 c0 69 3b f0 8f 0f bd
       0.103003755 0.0019348693 0.0035667801 -0.03504938
000310 a7 d7 b2 bb 27 e6 fe bc e6 ca e6 bc 1b fb b5 bc
       -0.0054578367 -0.031115605 -0.028172921 -0.022214463
000320 7d 06 90 bd a2 92 b1 3d e9 27 d0 bd c5 e0 9e bb
       -0.070324875 0.08670546 -0.10163862 -0.004848572
000330 8e 82 f4 3d 6d ac 29 3d 1f 3a da 3d ac 06 50 bd
       0.11938964 0.041424204 0.10655617 -0.050787613
000340 ac 91 40 bd 15 5d 46 3c ea 21 b8 bd a8 3f 3d 3c
       -0.047013924 0.012107153 -0.089908436 0.011550821
000350 0b c2 5d bd 01 10 a6 3d e0 47 58 3d be 08 13 3b
       -0.054140132 0.08108521 0.05280292 0.002243563
000360 26 37 ba 3d c6 17 11 3d 11 08 cf 3c 6e fb 5b bd
       0.0909255 0.035423063 0.025272401 -0.05370658
000370 1f 59 0f 3e 23 45 0f be 8f 12 c9 3a 30 68 02 be
       0.13998841 -0.13991217 0.0015340614 -0.12735057
000380 e7 fd 6d 3b 27 8e f0 bd 1c f9 7d bd 3b 63 c5 bd
       0.0036314668 -0.117458634 -0.062005147 -0.09638067
000390 78 ca d9 3d 18 90 01 3d 29 b6 80 3d fa e5 f7 bd
       0.10634321 0.03163156 0.06284744 -0.121044114
0003a0 a5 6d 97 3d 02 af 65 3d 0f 84 0a bd 0a 97 06 3e
       0.0739396 0.056075104 -0.033817347 0.13143554
0003b0 bf 99 80 3d cb e7 ee bb 20 57 41 3c f8 bf 9a bd
       0.06279325 -0.0072908155 0.011800557 -0.075561464
0003c0 90 f5 ec 3c 5f d4 13 3d 55 93 ec 3d 27 fc f0 3d
       0.028925687 0.036091205 0.11551539 0.11766844
0003d0 14 30 2c 3d 8e 0b 94 bc ab 66 8c bd 88 01 21 3d
       0.04203804 -0.018071916 -0.0685552 0.0393081
0003e0 3c 11 86 bd 86 1c 07 3c b8 87 85 bd ea d4 87 bd
       -0.06546256 0.008246547 -0.06520027 -0.06632407
0003f0 7a 33 99 3d a7 6d 48 3d 24 4c 00 3d f7 c0 81 3d
       0.074805215 0.048932698 0.031322613 0.06335633

fc2.bias f4 [60]
000000 3f f3 c8 3d 99 87 3a 3d f8 a5 55 3d 9f 56 fb bc
       0.098120205 0.045539472 0.052160233 -0.030680953
000010 28 d5 14 bb ab a4 f7 bd af 2a ff bd 27 ec 1c 3d
       -0.002271006 -0.12091955 -0.12459313 0.03831115
000020 cf 83 c9 3d 31 08 a8 3d f1 be c7 3d ac ec 01 be
       0.098395936 0.082046874 0.09753216 -0.1268794
000030 0d 02 98 bd 66 d3 72 3d 59 6d 8d bd 81 35 16 3d
       -0.07422266 0.059283637 -0.06905622 0.03667212
000040 b4 c9 3d bd 09 10 a8 3c 2e bd 2f bd 7d e7 3a bd
       -0.046334937 0.020515459 -0.042905025 -0.04563092
000050 f1 88 88 bd ee db 91 3d ec 5c 18 bd 5f 3b 63 3d
       -0.066667445 0.071220264 -0.037197992 0.055476543
000060 22 62 5e bc 5a c4 ed 3d 5c 71 d5 bd a0 ab 39 bd
       -0.013573201 0.11609717 -0.10422012 -0.04532969
000070 7a b5 4c 3d e4 1c 9d bd 99 b6 9c 3d 88 07 68 3c
       0.049977757 -0.07671526 0.07652015 0.014161952
000080 e8 9b c5 3d 13 18 43 bd a2 f7 be bc 03 30 04 be
       0.096488774 -0.04763038 -0.02331144 -0.1290894
000090 c2 77 66 bd 4e bd cb bc a2 41 b6 bd 2e 43 c0 3d
       -0.056266554 -0.024870541 -0.08899237 0.093878135
0000a0 fb 8b 01 3e b9 91 9f bd 34 c6 72 bc c7 4b de 3d
       0.12651055 -0.07791466 -0.014817763 0.10854297
0000b0 e4 b4 67 bc 33 10 9f 3d 4c b7 a7 3d c4 4a ad bd
       -0.014142249 0.07766762 0.08189258 -0.08461526
0000c0 3a c6 28 3d 40 2d da bc 15 d5 7f bd 6d 36 a0 3d
       0.04120467 -0.026632905 -0.06245907 0.07822881
0000d0 26 dc 00 bd d8 09 85 bd 20 94 2b bd a2 10 aa bd
       -0.03145995 -0.06496018 -0.04188931 -0.08303954
0000e0 a7 8d cb 3d f8 84 90 3d ed b5 21 3d 7b e5 e1 3d
       0.099391274 0.07056612 0.03948014 0.11030098

out.weight f4 [10, 60]
000000 8d f1 01 bd bc 03 69 bd ed ad fb 3d 71 c9 d4 3d
       -0.0317245 -0.056888327 0.12289033 0.103899844
000010 d0 69 04 3e 8c 57 31 3d 90 88 d9 3c 89 d6 86 3c
       0.1293099 0.04329638 0.026554376 0.01645972
000020 3d db 2e 3e fc f1 1d be 8c 62 e9 3d f1 55 1a 3c
       0.1707582 -0.15424341 0.113957494 0.009419904
000030 7c 99 df bb 4a 16 1d be 60 f3 64 bd 92 7f ba bc
       -0.0068237167 -0.15340534 -0.055896163 -0.022765908
000040 c8 46 da bc c8 52 74 bd 49 1a 3a be 24 14 d1 bd
       -0.02664508 -0.05964926 -0.1817409 -0.1020892
000050 4e 82 ba 3c 0b 85 73 bc 88 4f b3 3c 24 ec 00 3e
       0.022767212 -0.014863263 0.02188851 0.1259008
000060 3b 76 3c be 30 13 88 bd 0d 78 84 be 9e 4a e9 bd
       -0.18404476 -0.06644285 -0.2587284 -0.11391185
000070 91 d9 8c be 80 51 6e 3d 58 68 4a bc bd be 2e 3d
       -0.2750974 0.058183193 -0.012353979 0.04266237
000080 94 cc 92 bd b6 f9 03 3e a5 f3 e0 bd d6 c9 f0 3d
       -0.071679264 0.12888226 -0.109839715 0.11757247
000090 bf 40 8d be 48 33 a7 3d 49 48 88 3c 90 34 20 3e
       -0.2758846 0.08164078 0.01663603 0.15645051
0000a0 83 13 b8 bc 87 5f c9 bb f6 88 52 be 46 e0 dc 3c
       -0.022470241 -0.006145421 -0.20560059 0.02696241
0000b0 ae e2 bc bd 0a e5 12 be c7 64 d0 3d 9f 03 ee bd
       -0.09222923 -0.14345184 0.10175472 -0.116217844
0000c0 a2 a6 b8 3d f1 9e dc bd 7c c3 c6 3d 83 9a 07 bb
       0.09016158 -0.10772503 0.097052544 -0.0020691461
0000d0 c3 25 c9 bd 7e d5 50 be da e6 1e 3e 46 65 1a bc
       -0.098216556 -0.20393941 0.1551775 -0.0094235595
0000e0 8f 66 4b 3e c3 5c 1b 3e 2c 08 5e bd 7d 25 48 be
       0.19863342 0.15172105 -0.054207012 -0.1954555
0000f0 3e d0 7b be 06 04 32 3d 90 11 14 3e 14 92 58 be
       -0.24591157 0.04346087 0.14459825 -0.21149474
000100 06 98 72 be 10 db 23 be 78 ec f6 bd f8 4d d7 bd
       -0.23690805 -0.16001534 -0.120568216 -0.10512918
000110 2a 6c 8e bd 5d c1 f5 3c 8b 84 55 be d3 b7 d0 bd
       -0.069542244 0.02999943 -0.20851342 -0.10191312
000120 b3 d6 2a be 1e c2 47 3e b5 65 2d 3d 87 bc b5 bd
       -0.16683464 0.19507644 0.042333324 -0.08873849
000130 74 c4 70 bd 21 d6 1f be df d6 30 bd 21 ab 1a 3d
       -0.058781102 -0.15609027 -0.043173667 0.037760857
000140 97 6d 84 bd c0 fa e0 3d b5 a8 be bd 59 59 94 3d
       -0.06466215 0.10985327 -0.09309522 0.07243604
000150 b4 67 1f 3d 90 c3 da 3d 24 3a 45 bc ae 25 05 3e
       0.03891726 0.10681832 -0.012037788 0.13002655
000160 a3 3e 15 3e c0 c0 0c bb af b9 2a 3e 03 52 48 bd
       0.14574675 -0.0021477193 0.16672395 -0.048906337
000170 ab 02 2d be 5d b4 f7 bd d7 93 2e 3e 0d fe b9 3d
       -0.16895549 -0.120949484 0.17048584 0.090816595
000180 dd 29 5f 3d c6 6c f1 3d 99 77 aa 3d 5a cb 85 3d
       0.054483283 0.11788325 0.08323593 0.06532927
000190 f3 25 d3 3d 58 0b 74 bc 17 d1 c5 3d 4b f6 b2 3c
       0.103099726 -0.014895283 0.09659021 0.021845957
0001a0 4d 1c bc 3d 85 68 b1 3b bb c8 e7 3b 10 4c fa bb
       0.091850854 0.005414071 0.0070734895 -0.007638462
0001b0 a5 51 94 3d 61 8d 27 3e ce a0 dd bd 2b c2 96 3d
       0.07242135 0.16362526 -0.10821687 0.07361253
0001c0 03 ff 72 3b 46 82 13 3e 1a 66 0b be 73 7b fb bd
       0.0037078268 0.14405164 -0.13613167 -0.122794054
0001d0 2d b4 9e 3e 8a 18 49 3e 29 65 66 be 25 07 9f bd
       0.30996838 0.19638267 -0.22499527 -0.077650346
0001e0 99 65 27 be 68 38 7c 3d 40 4e 63 3d 83 cb 5e bd
       -0.1634735 0.06157723 0.055494547 -0.054393303
0001f0 df 6b f2 3d 29 1a a0 3d 45 d1 a0 bb 44 c7 7b 3c
       0.11836981 0.0781749 -0.0049077594 0.015367333
000200 ac 06 74 3d a2 9a 24 be 9c af 5f be 5f 6d 2e 3d
       0.059576675 -0.16074613 -0.21844333 0.042584773
000210 54 9f 53 be 4f 0e f4 bc f1 f8 9c bd ee a3 d5 bd
       -0.20666248 -0.02979198 -0.07664669 -0.10431658
000220 c4 9f ab 3d 6c 92 a0 bd 01 b9 c4 bd f6 a7 00 3e
       0.08380082 -0.07840428 -0.09605599 0.12564072
000230 ea 86 c1 3d 92 48 cd bd 86 fd bf bd 76 b8 02 be
       0.09449561 -0.10023607 -0.09374528 -0.12765679
000240 58 9b 82 be eb 23 2d bd d3 29 10 be 06 98 3c 3e
       -0.25509143 -0.042270582 -0.14078455 0.18417367
000250 b7 6d 78 be 08 83 e7 bc 7c 18 8b 3d 35 6c 14 3e
       -0.24260603 -0.028260723 0.067917794 0.14494403
000260 f9 b2 54 be f2 58 25 bd 4e c3 46 3d e5 39 7e 3d
       -0.20771398 -0.040368028 0.0485261 0.06206693
000270 63 0f 22 3e ff 9f 20 bd e5 c0 87 3d a2 c0 34 3e
       0.15826182 -0.039215084 0.066285886 0.17651609
000280 94 82 ea bd 16 96 bb bd 37 45 5c 3d bf 74 3a 3e
       -0.11450687 -0.09159486 0.053776946 0.18208598
000290 d1 20 a0 bd 10 3b d0 3d f7 e7 31 bd e0 41 03 3d
       -0.07818759 0.10167515 -0.04343411 0.032045245
0002a0 20 c1 08 3e a5 1d 32 be 04 12 0a 3e c8 0a 27 3d
       0.13354921 -0.17394121 0.13483435 0.040781766
0002b0 92 8f 2f 3e e4 67 4c 3d 65 47 e7 3d cb 88 41 3c
       0.17144611 0.049903765 0.11292914 0.011812399
0002c0 ff 0a 51 bd 9d 8c a6 3c 6a fa 68 3d 8b aa 6c bd
       -0.051035877 0.020330722 0.05687944 -0.05777983
0002d0 bd d4 be bd 30 7d 5b be 63 bf 97 3b c6 fe c4 3d
       -0.0931792 -0.21434474 0.0046309694 0.09618907
0002e0 21 ec 4a bc 32 1f 97 3d 90 21 d6 3d c6 06 44 be
       -0.012385399 0.07378997 0.1045562 -0.19143209
0002f0 5c 6d 6f 3d ba 98 28 3b e2 b7 ec 3c 29 a2 9a 3d
       0.058453903 0.0025725798 0.028896276 0.07550461
000300 47 8f be 3d ec 63 bc 3c 16 bb e9 bd 6f 05 9e bd
       0.09304672 0.022996865 -0.11412637 -0.0771588
000310 7a 7b 83 bd db bd 9e 3d 94 07 a1 3d 63 f0 a3 3d
       -0.06420036 0.07751056 0.078627735 0.080048345
000320 8c 9b cb 3d 1c ad b1 bd f0 f9 9b 3c 16 0c 47 3e
       0.099417776 -0.08675596 0.019040078 0.19438204
000330 fa 54 91 bd 23 ff 19 be 48 9b 9c 3d e9 49 52 be
       -0.07096286 -0.15038733 0.07646805 -0.20536007
000340 dd be aa 3d 6c b4 f6 bc 92 85 87 3d 97 0b 00 be
       0.083371855 -0.030115329 0.066172734 -0.12504421
000350 96 9a 58 be 98 66 f6 3c 29 61 38 3e 93 9a 94 3d
       -0.2115272 0.030078217 0.18005814 0.07256045
000360 a3 c6 03 3e 7a 4d ce bd 1d cd 83 bd 70 e5 86 bc
       0.12868743 -0.10073371 -0.06435607 -0.016466826
000370 3d 7c 63 be 1b 41 00 bd ff 67 c2 bd 6f 58 1d bc
       -0.22215362 -0.03131209 -0.09492492 -0.009603604
000380 11 7c 8f bd 0a 36 54 bd f8 d8 15 be d2 c4 ab bd
       -0.07006086 -0.05180935 -0.14633548 -0.0838715
000390 29 c1 45 3e 8c 28 90 3d 0d bb 6f bd d9 5b 0d be
       0.19311966 0.07038984 -0.058527995 -0.13804568
0003a0 98 8f 13 3e a9 28 15 3e 12 2d 01 bd 8e 02 c8 3c
       0.14410245 0.14566292 -0.031537123 0.02441528
0003b0 9f 63 ae be 52 22 9e bd 5c 66 be 3d d2 98 98 bd
       -0.3406038 -0.0772139 0.09296867 -0.07451023
0003c0 aa 2c 64 be ac 19 17 3e b0 76 b1 be a5 1a 9e 3d
       -0.22282663 0.14755887 -0.34660864 0.07719926
0003d0 2b d5 3f bd 27 6b be bd c9 f3 43 be 5b 56 2c 3e
       -0.046834152 -0.092977814 -0.19135965 0.16829817
0003e0 e5 81 14 3d dd 16 44 be 3a 40 cf 3d cd 89 80 be
       0.03625669 -0.19149347 0.10119672 -0.25105134
0003f0 7c 5d 80 bd b4 f7 ec bd 6e a9 60 bd fe 46 39 bb
       -0.06267831 -0.11570683 -0.05484908 -0.0028271074

out.bias f4 [10]
000000 d3 c6 26 bd 8b ef a2 bd 5c ba f2 bb 20 a5 58 bd
       -0.040716957 -0.079558454 -0.0074074697 -0.05289185
000010 0d 04 84 3d a6 78 18 3d c1 fc 6b bd ce 1d e1 3d
       0.06446085 0.037224434 -0.05761409 0.10992013
000020 bd 40 59 3c fb b2 d1 bd
       0.013260064 -0.10239216
