CNN-NMIST/NN_MNIST.pth (torch, 134855 bytes, 10 tensors)

conv1.weight f4 [6, 1, 5, 5]
000000 ef db 66 be dd 39 e1 bd 23 29 83 be 2e 62 89 be
       -0.22544836 -0.10997365 -0.25617322 -0.26832718
000010 dc 8b 25 be 37 86 56 be 09 68 b4 be e6 bd ce be
       -0.16166633 -0.20949636 -0.35235623 -0.40379256
000020 8b 84 49 be 21 df b8 be 72 f8 9b 3e 8b 0d 46 be
       -0.19679467 -0.36107734 0.30462986 -0.19341104
000030 64 0d 59 be 6f fd 84 be 8a 1f 7b be ac 48 d8 3e
       -0.21196514 -0.25974604 -0.2452375 0.42242944
000040 4e 9d 9b 3e 5b c9 b3 3e 97 87 77 3e 85 ff 4f 3e
       0.3039345 0.3511456 0.24172817 0.20312317
000050 2f 09 91 3e 95 c6 d5 3e 66 d4 16 3f 9d 93 b3 3e
       0.2832732 0.4175307 0.58917844 0.35073557
000060 03 6c da 3e cb ba 7d 3d 00 ef ac 3e 88 fe 7a 3e
       0.4266053 0.061945718 0.33776093 0.24511158
000070 8a 98 da 3a 5c 75 c9 be 83 ec e6 3d a3 dd fe 3e
       0.001667754 -0.3934735 0.1127558 0.4977847
000080 cd e6 a8 3e b1 69 fe bd 2a 1b 97 be dd 3e c4 3e
       0.32988587 -0.12422503 -0.29512912 0.3832921
000090 21 ab 06 3f b0 bc 00 be 66 84 1d bf f0 71 19 bf
       0.5260487 -0.12571979 -0.6153015 -0.5993948
0000a0 1e 36 6a 3e 4b 2b d3 3e 5b 9f 85 be ae 80 c9 be
       0.22872207 0.41243967 -0.2609814 -0.39355987
0000b0 3e 7b 89 be 79 3c 46 3e c7 62 9f 3e 68 57 57 3d
       -0.2685184 0.19359006 0.3113005 0.05257359
0000c0 74 8a 12 be 0f 75 24 3b 5a c1 88 be b1 09 fc bd
       -0.14310628 0.0025094186 -0.26710016 -0.12306536
0000d0 48 1b e6 bd 03 de 80 bd aa 40 99 3d 8a 4c 00 be
       -0.11235672 -0.062923454 0.07483037 -0.12529197
0000e0 57 7e 3a be 81 e7 a4 be 92 97 8e be 25 71 9f 3d
       -0.18212257 -0.32207873 -0.27850014 0.077852525
0000f0 2b 2e 5c be eb 87 77 be 7c 1c 67 be 2f 17 3f be
       -0.21501987 -0.24172942 -0.2256946 -0.18661188
000100 28 dd 97 bc 50 fa d7 bd bd 60 b6 be 91 e9 17 be
       -0.018538073 -0.1054579 -0.3562068 -0.14835192
000110 a8 6b 9c be 47 b7 19 be b1 81 a0 be 90 8d 9f be
       -0.30550885 -0.15011321 -0.31348947 -0.3116269
000120 34 6e 2b be ba 0a 0c be ef eb 0c be 99 3e 8f 3e
       -0.16741258 -0.13675967 -0.13761877 0.27977446
000130 68 74 26 3e 30 1a 0c 3e 26 23 5b be 6d e6 6d be
       0.16255343 0.13681865 -0.21400127 -0.23232432
000140 e3 21 18 3e 68 e1 6e 3d 46 6b 7b bc 07 d0 93 be
       0.14856677 0.058320433 -0.0153454 -0.2886965
000150 32 0c d5 be 20 d1 27 3e 08 ea eb 3d 59 48 5f be
       -0.41610867 0.16388369 0.11519247 -0.21804942
000160 9d 5a bd be 42 2e d7 be b8 b7 57 3c 4e 83 94 be
       -0.36983195 -0.4202748 0.013166361 -0.29006428
000170 66 73 a0 be 5e 81 d3 bd 7f bb b1 bd fa 76 06 be
       -0.31338042 -0.10327409 -0.0867834 -0.13131323
000180 7f 14 9f be 5a b0 c3 be 24 b5 59 be 2c 31 a7 bc
       -0.31070325 -0.38220483 -0.21260506 -0.02040919
000190 dc 23 f3 be 05 12 de be 5d 5b 40 3c 55 86 2f 3e
       -0.47488296 -0.43373123 0.011740533 0.17141087
0001a0 ab 00 86 3e e2 0b 24 be 2c 26 13 be e9 f2 86 3e
       0.26172385 -0.16020158 -0.1437003 0.263572
0001b0 ea a6 6e 3e 5f de b6 3e 07 00 e2 be d8 24 08 bc
       0.2330586 0.3571653 -0.44140646 -0.0083095655
0001c0 13 ae eb 3e 4a 2c bb 3e 00 58 ba 3e 46 b5 b2 3d
       0.46031246 0.36557227 0.36395264 0.087259814
0001d0 75 44 bc 3e 18 1c 03 3f 96 a4 91 3e 4c ac e3 3d
       0.3677098 0.5121474 0.28445882 0.111168474
0001e0 ea b9 0b be 62 e0 05 3e 47 c2 76 3e f5 4c cb 3e
       -0.1364514 0.13073877 0.24097548 0.3970715
0001f0 81 14 04 3e 00 a5 d9 bd f7 b4 4a 3d 67 f7 bd 3e
       0.12898447 -0.106271744 0.049488988 0.37102816
000200 75 48 07 3f cd e2 42 3f 36 cf 9f 3e 43 ab 4f 3e
       0.52844936 0.7612732 0.31212777 0.20280175
000210 29 1e cc 3e 7b b7 0d 3f c3 1d ee 3e 72 5d 35 3d
       0.3986676 0.55358094 0.4650708 0.04427857
000220 c1 68 b8 ba 04 57 79 be d1 1d 00 be d9 f0 07 3e
       -0.0014069305 -0.243496 -0.12511374 0.1327547
000230 d9 1a 06 3e 4c e7 2a be e6 56 8a be 8d 15 98 be
       0.13096179 -0.16689795 -0.27019423 -0.29703942
000240 63 2a e9 be f4 8b 3e be 97 83 85 be 8d 2e 51 be
       -0.4554015 -0.18608075 -0.26076958 -0.20427914
000250 4b 08 e0 be b5 1b ff be
       -0.43756327 -0.49825826

conv1.bias f4 [6]
000000 21 2b af 3e 17 92 bf 3e f7 30 d7 bd 0d d7 30 3e
       0.34212592 0.37416145 -0.10507386 0.17269535
000010 2a e9 af 3e 88 41 2d 3f
       0.34357578 0.6767812

conv2.weight f4 [12, 6, 5, 5]
000000 56 b6 82 3e 1d 72 89 3e 7d 26 83 3e 35 ff 61 3e
       0.25529736 0.26844874 0.25615302 0.2207001
000010 48 eb 95 3e 8a 9b 72 bd fb ac 9e 3d 43 30 b8 3d
       0.29281068 -0.059230365 0.07747837 0.0899358
000020 75 a0 3b 3d 96 47 85 3d 2d 58 cc bd 62 40 b4 bd
       0.04580732 0.065077946 -0.09977756 -0.088013425
000030 56 5d 09 be bb 03 84 3d fc 7e f0 bc cb 78 e2 bd
       -0.13414511 0.06446024 -0.029357426 -0.11058196
000040 51 96 02 3d bb 48 a1 bd 70 af d9 3c ef 19 99 3c
       0.031881634 -0.078752 0.026572913 0.018689124
000050 68 b3 be bc 22 32 95 bd 69 25 cd bd 2e 9f af 3c
       -0.023278907 -0.07284953 -0.10016901 0.021438207
000060 ed d0 25 bd 16 9c cc bb 68 65 19 be b6 17 99 bd
       -0.04048245 -0.006244193 -0.1498009 -0.074752256
000070 81 bc 6e be f9 9c 11 be 01 00 02 bc 65 10 6b bd
       -0.23314096 -0.14220037 -0.007934571 -0.057388682
000080 2f b5 08 be 04 4b a0 bd fc d3 40 be 27 12 7a 3b
       -0.13350366 -0.07826808 -0.18830866 0.0038157792
000090 e8 49 56 bd 40 d9 fd bd b8 bc aa bd ff 04 6a bd
       -0.052316576 -0.12394953 -0.083367765 -0.05713367
0000a0 2c 88 a0 bd 5b e5 0a 3d 8d 73 94 bb d7 53 55 bd
       -0.07838473 0.033910137 -0.0045303763 -0.05208191
0000b0 04 df 54 3d 57 21 a5 3d 30 61 7f 3c f9 e8 d0 3c
       0.051970497 0.08063 0.015587136 0.025501715
0000c0 94 30 90 bd b3 fb fb 3d b5 24 8f be 9e 07 11 be
       -0.070405155 0.12303867 -0.27957693 -0.14163062
0000d0 bd 83 42 be 1d ac 27 be 9a 4e 01 be e2 df 11 3c
       -0.18995567 -0.1637425 -0.1262764 0.0089034755
0000e0 c9 1e a7 3a 5b 75 f7 3c 29 bb cf bd 3e 1a 16 be
       0.0012750264 0.030207327 -0.1014312 -0.14658448
0000f0 cc 08 05 3e dc e1 4d 3d 62 0f 8b bd 7e b0 14 3d
       0.12991637 0.050264224 -0.067900434 0.03630113
000100 3e b2 3d bd 7a bd 50 3e dc 64 b8 3d 20 08 d7 3c
       -0.046312563 0.2038478 0.090036124 0.026248991
000110 76 8c 3d bd 52 58 6a 3d 47 02 01 3e f0 39 b1 3d
       -0.046276532 0.057213135 0.12598525 0.08653629
000120 2a 0c 8f 3d 81 f7 83 3d 32 c6 a7 3c 9a b9 51 be
       0.06984742 0.06443692 0.02048025 -0.20480958
000130 eb 5e 7a be 3e cb 86 bd bb 86 ee bd 11 e3 69 be
       -0.24450271 -0.06581734 -0.116467915 -0.22840525
000140 e5 0f 09 bc 26 9f 3e bd 73 77 04 be e3 7d 38 bd
       -0.008365606 -0.046538495 -0.12936191 -0.04504193
000150 4d 35 2d bd 46 4a 1c bd e0 70 65 3d 7c 75 bc bd
       -0.04228716 -0.03815677 0.05601585 -0.09202096
000160 8c df 9a 3c bb 94 c0 3c 91 f5 0d 3e 45 8c a4 3d
       0.018905424 0.02350842 0.13863207 0.08034567
000170 21 83 dc bc 9b bc 23 bd 7f dc 2a bc b6 4f 13 3d
       -0.026917996 -0.03997479 -0.010428547 0.03596469
000180 3c 1f d7 3d 0b 85 96 3d cf 4a c5 3b b5 bf 48 bd
       0.10504004 0.07349595 0.006020881 -0.04901095
000190 34 96 ea 3d 27 3b ea 3d 6f 75 3e 3d 69 17 96 bc
       0.1145443 0.11437064 0.046498712 -0.01832171
0001a0 36 be 03 bd d9 69 52 3d 43 2a b4 bc 41 1d fd bc
       -0.03216382 0.051370475 -0.021992808 -0.030897738
0001b0 e4 1b 1c bd 11 73 e2 3d 8c 66 fc bd d6 f3 22 bd
       -0.038112536 0.110571034 -0.12324247 -0.03978332
0001c0 0c 4e 72 bd 26 35 b6 bd 31 34 06 3e bc 5e b1 bd
       -0.059156463 -0.08896856 0.13105847 -0.08660647
0001d0 ac 30 45 bc f6 57 03 3d 9a 54 ac 3d 77 28 d3 3d
       -0.01203553 0.032066308 0.08414574 0.103104524
0001e0 a0 45 04 bd 8b 3f 99 3d ea a1 57 3d ee e5 17 3d
       -0.032292962 0.07482823 0.052644648 0.037084512
0001f0 9b 64 5d 3e 6e d0 d7 3e d2 d0 8b 3e e7 b1 eb 3e
       0.21620409 0.42151207 0.27307755 0.46034166
000200 94 78 d6 3e c3 3c 77 3e 06 05 8c 3e be fe 85 3e
       0.4188887 0.24144273 0.27347583 0.26170915
000210 0d 6e 64 3e d6 c0 33 3e f0 f0 74 3e 1b 5c 13 3e
       0.22307606 0.1755403 0.23920035 0.14390604
000220 d6 03 ac 3d 3a 50 1d 3e 27 db 2a 3e e2 dd 42 3e
       0.08399169 0.15362635 0.16685162 0.19029954
000230 c9 59 ed 3c bb 39 9d 3c a6 45 2c bc 0c 98 82 bc
       0.028973477 0.019192567 -0.010514652 -0.015941642
000240 cb 98 80 3e 17 b4 1d be 61 d1 5c bd 2c e9 0c 3d
       0.25116572 -0.1540073 -0.053910617 0.034402058
000250 07 50 b4 bc ab 1d 2c 3e 12 c5 18 bd 85 24 85 3d
       -0.022010816 0.16808192 -0.037297316 0.06501106
000260 7f ad 7c 3d bf 90 42 3d ad 0d b1 3c 83 a3 80 bd
       0.061688896 0.047501322 0.021612966 -0.062811874
000270 2c 79 95 bd 74 f2 c2 3d 4c ab 04 3e 01 9d bb 3d
       -0.07298502 0.095189005 0.1295597 0.091608055
000280 7c f3 9c bd 85 ca 3c bd d1 b6 c5 3c 42 ad 2e 3e
       -0.076636285 -0.046091575 0.024135025 0.1705828
000290 13 91 4f 3e 9b 74 ba bb 20 e1 9a 3d 91 ea 4a 3d
       0.20270185 -0.00569017 0.075624704 0.049540106
0002a0 2e 6b 64 3e 5d 77 e0 3e 27 34 02 3d e2 d2 d4 3c
       0.22306511 0.43841067 0.031788018 0.025979463
0002b0 bf a4 d3 bc ea c9 29 3d 21 3d aa 3e 2f 26 b3 3e
       -0.025835393 0.041452326 0.33249763 0.3499007
0002c0 7c 9c 9e 3e b3 0c a0 3e 13 a8 4c 3e 72 63 86 3d
       0.30978763 0.3125969 0.1998599 0.065619364
0002d0 8c 8a cd 3e 91 05 91 3e 7f bc 96 3e b6 28 89 3e
       0.40144765 0.2832456 0.29440686 0.26788872
0002e0 eb 30 95 3d 4a b7 3f 3e 13 a7 a2 b9 3f 9c ab 3d
       0.07284721 0.18722263 -0.00031023528 0.08379411
0002f0 97 5d 17 3e ba 05 2e 3e f4 cd 19 bd 92 62 4b be
       0.14781795 0.16994372 -0.037549928 -0.1986182
000300 29 db bf 3c ea 55 bd 3d b8 1d 51 3e 37 19 de bd
       0.023419933 0.092449024 0.20421493 -0.10844653
000310 21 83 02 be ab 0d 70 bd ae 4d 85 3c 05 ee 2b 3e
       -0.12745334 -0.058606785 0.016272392 0.16790016
000320 a2 8b d7 bc e1 91 c2 bd 2f 19 ff bd 65 fe 19 bd
       -0.0263117 -0.095004804 -0.12455975 -0.037596125
000330 cc 0c 13 bd cb 4f f4 3b f9 a2 2d 3d d6 ce 01 be
       -0.035900876 0.007455801 0.04239175 -0.12676558
000340 cf 73 ce bd b9 f6 41 bd 03 87 bb 3d 93 31 cd 3d
       -0.100806825 -0.047354434 0.09156611 0.10019221
000350 8e 97 54 bc ab 14 0f be 1a 01 e1 bd 34 24 39 3d
       -0.012975587 -0.13972728 -0.10986538 0.04520054
000360 e7 e6 24 3e b4 ca 9d 3c a0 50 13 be f1 bf fd bd
       0.16103707 0.019261695 -0.14386225 -0.123901255
000370 aa 43 a9 3d 75 77 4a 3e 1c 09 92 3d 73 4a 95 bc
       0.08264859 0.19772132 0.07130644 -0.018223977
000380 ad 67 47 be 22 33 e1 3c 8b 0b 99 bc 27 11 91 bd
       -0.19473143 0.027490202 -0.018682262 -0.0708335
000390 d9 ff bd 3d 2d 26 43 bd 71 b6 bc bc c0 08 18 be
       0.09277315 -0.04764383 -0.023036214 -0.14847088
0003a0 74 de 40 be 27 76 d6 bb e4 fe 0d 3c ba 11 c0 3c
       -0.18834859 -0.0065448466 0.008666728 0.023445953
0003b0 2f ec 32 be 7c 66 7e be 4d e5 3a be 8e be 06 3d
       -0.1747291 -0.24843782 -0.18251534 0.03289657
0003c0 21 1e e3 bc 1f ca 2e be d8 83 12 be cb b6 65 be
       -0.027724328 -0.1706929 -0.14308107 -0.22433011
0003d0 f4 8e d1 3c df e3 a9 3d 47 8f 1b 3d a4 af f1 bd
       0.02558086 0.08295416 0.037978437 -0.11801079
0003e0 b8 49 3c be 39 89 b4 bd da 0f ee 3d f3 9d a0 bc
       -0.18387496 -0.08815236 0.11624117 -0.019606566
0003f0 a3 81 12 3d c6 1c ea 3c 41 8f b2 3c 9b 68 9a 3d
       0.035768162 0.028578173 0.021796824 0.07539483

conv2.bias f4 [12]
000000 d5 2f a9 3d 90 45 17 3e 80 d6 ff 3d 4b b6 e3 bc
       0.08261076 0.1477263 0.124920845 -0.027796885
000010 37 f8 4b 3d a5 a1 cb bd 0b f9 99 bd 14 f8 9c 3c
       0.049797263 -0.099429406 -0.07518204 0.019161262
000020 8a dd b3 3c 29 e2 b6 3d ba 4f 49 bd 76 6b 23 3c
       0.021956224 0.089298554 -0.0491483 0.009974351

fc1.weight f4 [120, 192]
000000 71 d5 64 3d 6c da 9e 3d 12 99 cf 3c 17 14 4c bc
       0.055867616 0.077565044 0.025341544 -0.012455962
000010 0c 1c 64 bc 49 63 50 3d a6 a9 a1 bd a5 ac 8e bc
       -0.0139227025 0.050875936 -0.07893686 -0.017416308
000020 b9 2e e7 3d a9 b5 a5 3d d6 e8 ff bc 0e 49 d8 3d
       0.112882085 0.080912896 -0.031238955 0.10560809
000030 6b fd da bc b0 48 06 3d f6 ba 07 bd 0e 6f d4 3d
       -0.026732167 0.032784164 -0.033137284 0.103727445
000040 6e 7c ba 3d a6 bc a5 3c 78 8b af bd 42 b1 cf bd
       0.09105764 0.020231556 -0.085715234 -0.10141231
000050 ed 21 24 3e 26 8a 57 bd df 4d 1b 3c db 7c 1a bd
       0.16028567 -0.052621983 0.009479015 -0.037716728
000060 9f a1 8b bb 96 ef a8 bd 41 10 96 3d ff ed 91 3d
       -0.00426121 -0.082488224 0.07327319 0.07125472
000070 7e e9 98 bd a2 af 77 3d a4 db b0 bd 86 16 77 3c
       -0.0746641 0.06047023 -0.08635643 0.015081054
000080 39 08 83 3d ec 09 37 bd 5a db d4 bd c5 67 ad bd
       0.06398053 -0.044687197 -0.103934005 -0.08467058
000090 63 4b 4c bd ea 65 90 3d 90 c3 6c bc c9 da a1 bd
       -0.049876582 0.070506886 -0.014450923 -0.07903058
0000a0 4d 3d 6f bd 95 0a 18 3d 59 31 4d bd 8b 86 6c bd
       -0.05840807 0.037119467 -0.05009589 -0.057745498
0000b0 51 b7 28 3d 52 17 23 bd cb ae 4b bd 71 e5 8e 3d
       0.04119045 -0.03981716 -0.049727242 0.06977356
0000c0 ee e0 9d 3d f9 ca 59 bd f6 81 34 bd 85 f3 ec bd
       0.077089176 -0.053172085 -0.044069253 -0.11569885
0000d0 82 f6 30 be 26 12 3c 3d 51 59 0e 3d ae b8 05 be
       -0.17281535 0.045915745 0.034753148 -0.13058731
0000e0 15 26 87 be 1c 04 48 bd 02 48 82 bd ef 9f d6 bd
       -0.26396242 -0.048832044 -0.06361391 -0.10479724
0000f0 89 20 78 bd e4 dd 19 bd 51 dd 9b bd 72 61 3b bd
       -0.060577903 -0.037565127 -0.07610572 -0.045747228
000100 6f 4a 62 3d 73 36 25 3d 30 ed 7f bb 5b 75 75 bd
       0.055246767 0.04033513 -0.0039051287 -0.059926372
000110 7b 0c 02 bd 8e 90 99 bc 6c 0a 89 ba 47 7e 5f bd
       -0.031750184 -0.018745687 -0.0010455376 -0.054563787
000120 cf 24 94 3c 37 36 ca 3d 4b 3f 87 bc 27 b1 64 bc
       0.018083958 0.09873622 -0.016509673 -0.013958252
000130 af e5 76 bc 30 df 92 bb dd b9 c0 3d 41 22 2c 3d
       -0.015069409 -0.0044821724 0.094104506 0.042024855
000140 9e 05 9b bd 81 c6 0c bc 41 01 52 3d b4 d4 3a bd
       -0.07569431 -0.008592249 0.051270727 -0.045613006
000150 ab 50 73 3d 59 74 8f 3d 3e 6a 03 3c 88 b9 bb 3c
       0.059403103 0.070046134 0.008020936 0.022915617
000160 1c 46 3c 3d bb 3a 83 3d 80 0d 2a 3d ba 08 f6 3a
       0.0459653 0.06407686 0.04151678 0.0018770911
000170 dc 7e 4a bd c4 b9 f6 bb 14 78 aa 3d 8d bf 6e 3c
       -0.04943739 -0.007529469 0.08323684 0.014572036
000180 93 2d fb bd 1d 8e e6 3c 53 61 71 bd d9 3a 1c 3d
       -0.12264552 0.028143937 -0.058930706 0.03814206
000190 1f 32 62 bd d0 26 85 3c da 24 a7 3c 34 0f 18 bd
       -0.05522358 0.016253859 0.020403314 -0.037123874
0001a0 72 56 8d bd fb 21 d6 bc 41 51 8d bd e3 a5 d2 3d
       -0.06901254 -0.02613925 -0.069002636 0.10285547
0001b0 cf ab dd 3d 7c e1 88 3d 87 26 2d bd 1f 13 4e 3d
       0.108237855 0.06683633 -0.04227307 0.050311204
0001c0 30 4d 25 3e d2 2e a7 3d 26 59 14 3c 8c fa b1 bc
       0.16142726 0.08163227 0.009054458 -0.021725915
0001d0 7c bf 3f 3d 95 a5 97 3d 72 26 43 bd 90 75 fb bc
       0.046813473 0.07404629 -0.047644086 -0.030695707
0001e0 a8 ce 45 bc 32 2a 80 3d 04 5a 45 3d 6d 28 34 3d
       -0.0120731965 0.06258048 0.04818155 0.043983866
0001f0 6c 73 11 3d 20 4b b0 3d bb ad 90 3d 19 08 d5 3d
       0.035510466 0.08608079 0.070643865 0.10401935
000200 42 87 b1 bd 94 88 14 bc a8 34 b7 bd 35 ac 5e 3d
       -0.086683765 -0.009065766 -0.0894559 0.05436345
000210 96 0c 45 bd 99 41 c2 3d 59 61 0c be 05 3e d0 bd
       -0.048107706 0.09485168 -0.1370901 -0.10168079
000220 5b 5c ad bc 64 b8 5f bc 20 73 ce 3c 0f 0b e4 bc
       -0.021162203 -0.013654802 0.02520138 -0.027837304
000230 e5 76 36 3d 03 2e be bc b6 00 82 3d 4f 12 cd 3d
       0.04454698 -0.0232153 0.06347792 0.10013258
000240 46 46 37 3e f7 3d f7 3c a6 1a d7 bc ad fd 12 be
       0.17897901 0.030180914 -0.026257824 -0.14354582
000250 8e 0f 97 3d 63 9e 5b bd 70 0a c7 bc c1 43 fa bd
       0.07376014 -0.053617846 -0.02429697 -0.12219954
000260 43 02 de bb fd 6d 8d bd 08 44 90 bd e3 ec 90 bd
       -0.006775172 -0.06905744 -0.07044226 -0.070764326
000270 d4 af 0a be a3 80 1f 3c 09 17 a5 bd 54 39 bc bd
       -0.13543636 0.009735259 -0.08061034 -0.09190622
000280 30 39 90 bc 7e 49 ba 3c 14 f8 82 3d 59 16 61 bc
       -0.017605394 0.022740122 0.063949734 -0.013738238
000290 f6 86 06 be 1f 4c ae bc 24 8f f8 3d 9e 42 a4 3d
       -0.13137421 -0.021276532 0.12136677 0.08020519
0002a0 77 d8 5e bd d9 a8 1f be 94 51 19 3d d7 f0 85 3d
       -0.054405656 -0.15591754 0.037431315 0.06540077
0002b0 cc 69 e0 bd d6 61 2e be 46 e7 82 39 9d 3c b2 bd
       -0.10957679 -0.17029509 0.00024967844 -0.08702967
0002c0 b4 9f 41 3c 18 fb ae 3c 50 75 a9 bc eb 80 b2 3d
       0.011817861 0.021359965 -0.020685822 0.087159954
0002d0 5f 0a 84 bd 27 e9 a5 3d 2d da b9 3d c7 32 ac 3d
       -0.06447291 0.08101111 0.09074817 0.084081225
0002e0 ea bd fe 3a d9 1c ce 3d b5 e0 3a bd 48 60 73 3d
       0.0019435261 0.10064096 -0.045624454 0.059417993
0002f0 93 8e 3b 3d 9e f7 d4 3a ed 12 ee bc fe 97 f1 3d
       0.045790266 0.0016248112 -0.029061759 0.11796568
000300 3a 78 68 bd 50 a6 ff bd 65 6e 24 be ab bc 2e bd
       -0.056755282 -0.124828935 -0.16057737 -0.042660397
000310 a8 93 68 bd 7b bb 24 bc 8c 20 53 bd 7d 2f b9 bd
       -0.05678144 -0.010054464 -0.05154471 -0.09042261
000320 b7 f0 2e bd df 37 3b 3d 01 f1 6c bc 84 4e c4 bb
       -0.042710032 0.04570758 -0.014461757 -0.005990805
000330 fd ae 0b 3d 2b c2 9c 3d a2 6a da 3c d3 70 05 3d
       0.03410243 0.07654222 0.026662175 0.0325783
000340 9f c4 0a 3c ec eb e8 bd e6 52 67 bd ec db a7 bd
       0.00846973 -0.113731235 -0.056475542 -0.08196244
000350 44 f6 9f ba 01 21 9a bc 01 3e 07 bd 43 3f ad 3d
       -0.001220413 -0.018814566 -0.033018116 0.08459332
000360 e0 ea d3 bc df b5 0b 3d 7e 8a a1 3b 88 c2 03 3e
       -0.025868833 0.034108993 0.0049298396 0.12867177
000370 08 bf 2d bd 3b fa 6a 3c 62 9f 84 bc 55 c0 05 3e
       -0.04241851 0.014341886 -0.01618928 0.1306165
000380 e0 d0 3b 3d ed 27 30 3d 2f 63 35 3d 49 40 6f 3d
       0.045853496 0.043006826 0.044284042 0.058410916
000390 b8 3b d8 3c 51 0a 21 3d 17 3e c9 bc 70 9e 9f bd
       0.026395664 0.03931648 -0.02456574 -0.077938914
0003a0 46 dd 3f 3d 44 5e 98 bd 27 dc 2f bc fe ab 19 bd
       0.046841882 -0.07439855 -0.010733641 -0.03751754
0003b0 e0 39 08 bd 81 0a e7 bc 77 20 67 3d 93 6f 8e bd
       -0.03325832 -0.02820325 0.056427445 -0.06954875
0003c0 cd 37 91 bd d3 1b a3 bb b6 a9 e8 3d a9 6f 98 3b
       -0.07090721 -0.004977682 0.11360495 0.004651983
0003d0 f3 e7 4e 3d 01 cb 42 3d 8a e2 08 bb 58 0f 29 be
       0.050514173 0.04755688 -0.002088698 -0.1650976
0003e0 63 46 40 3d 42 f6 df 3c 91 48 93 bd 35 60 ef bd
       0.046942126 0.027339105 -0.07191575 -0.11688272
0003f0 c3 a2 97 bd 9a cd 82 3c b6 f5 20 bd ec d8 34 3d
       -0.07404091 0.01596718 -0.03929683 0.044152185

fc1.bias f4 [120]
000000 6e c6 0e 3d 67 e3 4c 3c da ad d7 bd 07 70 ec bc
       0.034857206 0.012505389 -0.105312064 -0.028862013
000010 e4 ff 1e bd 81 cb 07 be c5 e0 0e bd 68 b6 ee 3d
       -0.038818255 -0.13261224 -0.034882326 0.11655885
000020 81 f2 80 bd a0 3d 64 bd 4f 0a cf 3c ce 94 a5 bd
       -0.06296254 -0.055722833 0.02527347 -0.08085023
000030 04 76 4a 3c 5a e0 8c 3b 49 c3 a3 3d 9c 5f 06 be
       0.012357239 0.0042992057 0.07996232 -0.1312241
000040 b6 f8 74 3d d8 c3 0e 3e d1 69 a1 bd be 80 68 bd
       0.0598075 0.13941896 -0.07881511 -0.056763403
000050 a3 09 d6 bc 7c 7e 4e bd 76 76 9d 39 f0 e7 65 3c
       -0.026127642 -0.050413594 0.00030033634 0.014032349
000060 ae da 47 bd 1e 49 99 3d c0 1f 4a bb d4 5e ac bd
       -0.048792534 0.07484649 -0.0030841678 -0.084165245
000070 66 8a 1d bd fd 89 9b 3c 4e a1 4d 3d 2a d7 92 3c
       -0.038462065 0.018986696 0.05020266 0.017924864
000080 84 09 b1 3c 1f da 84 3d 0e bc 02 3d fc 6f 0c 3c
       0.021610983 0.06486916 0.031917624 0.008571621
000090 56 94 66 bd 06 80 7a bc ce 13 3b 3d 79 8e 8c bd
       -0.056293808 -0.015289312 0.045673184 -0.06863112
0000a0 cc 7b ed bc 89 da e4 3d ba 2e 64 3c 5c 2c d2 3c
       -0.028989695 0.11174495 0.013927156 0.025655918
0000b0 ee 26 a1 3a 43 ca ac 3c 1d 66 8c bb c1 38 44 bd
       0.0012294927 0.02109254 -0.004284634 -0.047905687
0000c0 f7 3f a3 3d ad 0b 0d 3d 19 6f 91 3c 1b 6b 85 bc
       0.07971185 0.034434963 0.01775317 -0.016286423
0000d0 35 4f 89 3d eb 57 69 3d 1e c4 12 bd 35 33 fe 3d
       0.06704561 0.05696861 -0.035831563 0.12412111
0000e0 13 79 78 bd c0 72 51 3d e6 33 ab bc ea b3 c7 bc
       -0.06066234 0.051134825 -0.02089877 -0.024377782
0000f0 04 43 86 bd 86 49 85 3d db e1 5c 3b bf 60 a8 3d
       -0.06555751 0.06508164 0.0033703956 0.08221578
000100 cc a9 84 3d 55 e8 35 bd 0f aa a1 bc 15 42 d1 3c
       0.06477699 -0.044411022 -0.01973441 0.025544206
000110 7c 8a 5a 3c e1 0a 97 3d 52 14 60 bd 01 8b 83 bd
       0.013338681 0.07375122 -0.05470688 -0.06422997
000120 b6 82 2b bd 4c b5 9a 3d b7 52 3e bd 61 ae e6 3d
       -0.041872703 0.07554111 -0.0464656 0.11263729
000130 c2 24 58 bd 76 02 ff 3d d8 2f c0 bb 0a ff d3 3d
       -0.05276943 0.12451641 -0.0058650784 0.10351379
000140 2a 29 22 3d 0c eb b1 bd 6e 7d 13 3d 2c bf e6 3c
       0.03959004 -0.0868741 0.03600829 0.02816733
000150 f0 05 87 3d a1 fb 0b 3d 3b 25 2d 3d 3f 8c 95 3d
       0.06592929 0.03417552 0.042271834 0.073021404
000160 15 24 7e bc 27 71 78 bd a8 4a 98 bb f8 34 58 3c
       -0.015511532 -0.060654785 -0.0046475716 0.0131962225
000170 1e df 3b bc 6f 6f f7 3d 3b d0 16 bc 61 3f d9 bd
       -0.0114667695 0.12081801 -0.009204919 -0.10607792
000180 ca 65 14 bd 29 1e 84 bc 51 72 1a 3c c5 d8 59 bd
       -0.036229886 -0.016127663 0.009426669 -0.053185243
000190 a2 27 0e 3d 42 40 f7 bc 46 86 1d bc 98 17 6a 3c
       0.034705766 -0.030182008 -0.009614533 0.014287852
0001a0 c9 60 d5 3d 38 b9 a6 bc 11 a8 b7 bc 7d a6 60 bd
       0.10418851 -0.020351991 -0.022419007 -0.054846276
0001b0 45 05 22 bd c8 6b 52 3c 99 40 da 3d 59 95 78 3d
       -0.039555807 0.01284308 0.10656852 0.060689304
0001c0 86 06 a0 3d 0b 2c 00 be cc e7 6e bd d8 2d be 3c
       0.07813744 -0.12516801 -0.058326527 0.02321522
0001d0 20 8c 72 3d 62 8f db 3b f2 92 aa 3c 4f 43 5b bc
       0.059215665 0.006700442 0.020822022 -0.013382747

fc2.weight f4 [60, 120]
000000 fb 6f 95 3c a8 0d 49 bd 8d a1 56 3d 0e 2d 32 3d
       0.018241873 -0.04908529 0.05240016 0.0435
000010 e6 e1 ec 3d 9d fc db 3c 42 40 d1 3c c6 10 8f 3d
       0.11566524 0.026853854 0.025543336 0.06985621
000020 47 5f 91 bd 9f 8b 9a 3d fa c2 16 3e 93 c3 52 bd
       -0.07098251 0.07546162 0.14722815 -0.051456045
000030 b9 49 7d 3d b7 fc cc bd 87 c5 6f bd 14 cb 01 bd
       0.061837886 -0.10009139 -0.058537986 -0.03168781
000040 1e aa 24 3e 4d 7f e3 3c 6f a1 b8 3d b4 31 c2 3d
       0.1608052 0.027770663 0.09015166 0.09482136
000050 b5 aa 53 bd e6 02 5e bd 8c 3e 57 3c 58 6d 2b be
       -0.05167647 -0.054201983 0.013137471 -0.1674093
000060 85 b2 0b bc 27 37 90 3d 07 1e 26 be 72 05 81 3d
       -0.008526449 0.070417695 -0.16222392 0.06299867
000070 4f fa ca bc ef 2d ac 3d d0 69 a9 bd 0c a4 d1 3d
       -0.02477756 0.08407199 -0.08272135 0.102363676
000080 14 30 0a 3d 3a 32 dc 3d 3a 5b 95 3c 7a 23 9f bd
       0.033737257 0.107517675 0.018231977 -0.077704385
000090 64 27 6c bc b7 52 18 bd c3 28 31 38 5a f3 51 3d
       -0.014413688 -0.037188258 4.223805e-05 0.05125747
0000a0 56 19 c9 bd 32 28 d1 3c 2b 33 7f 38 8f 24 c2 3d
       -0.098192856 0.025531862 6.084439e-05 0.09479629
0000b0 47 c1 b3 bc 69 ff f3 3d 7c 51 88 bc b2 c8 80 3d
       -0.021942748 0.1191395 -0.016640417 0.062882796
0000c0 11 5c df bd 43 0e 09 bd 93 b1 79 3d 1b e4 88 3d
       -0.10906232 -0.033460867 0.060960364 0.06684133
0000d0 ed 1c 62 bc 66 f9 54 bd a3 a6 1c bd 44 75 39 3d
       -0.013800842 -0.051995657 -0.038244855 0.04527785
0000e0 70 02 9b bd 7b 00 82 3b a1 8e 3e 3d e8 d6 d2 3d
       -0.07568824 0.0039673424 0.04652274 0.10294896
0000f0 94 6c 44 3d 50 29 e3 3d 28 2e 0c be 93 51 21 be
       0.04795511 0.11091864 -0.13689482 -0.15753774
000100 bc bf 24 3d 3d dd eb bd 9d d0 df 3c f2 12 7c bd
       0.040221915 -0.11516807 0.027321154 -0.061541505
000110 12 20 dc 3d ed b2 90 3d 12 d5 fc 3c a2 6d 5d 3d
       0.107483044 0.070653774 0.030863319 0.054059632
000120 d5 61 53 3c 26 f1 aa 3c 40 e7 be bd 3b 4c 05 3d
       0.012901743 0.020866942 -0.09321451 0.032543402
000130 5c 7c 95 3d de 57 4c bd 11 8e 82 bd 95 81 87 3c
       0.0729911 -0.049888484 -0.06374753 0.016541282
000140 1f 6e a2 3d bb 2d 9b 3c 7e 6d b1 bc 01 4c 67 be
       0.0793116 0.018942704 -0.021658655 -0.22587587
000150 80 55 1e 3d 41 eb b2 3d d9 b1 33 3d 06 6b c5 bc
       0.038655758 0.08736277 0.04387078 -0.024098884
000160 02 5a d1 3c 85 bf 04 3d 11 0b 80 3d 2b 86 1e bc
       0.025555614 0.03240921 0.06252111 -0.009675543
000170 1b 49 d0 3d 18 9f ae 3d 33 72 46 bd a5 26 8b 3d
       0.10170194 0.085264385 -0.048448753 0.0679448
000180 e1 20 e2 3d f1 0a 88 3d 3f e9 04 be c8 e4 39 be
       0.110414274 0.06642712 -0.12979601 -0.1815368
000190 bc fc fc bd 39 ba c3 bd 6b 64 da bd 1e 14 95 3d
       -0.12352893 -0.095570035 -0.106636845 0.07279228
0001a0 32 08 b0 bd 7a c3 13 be e7 0b 58 be 19 c7 5a be
       -0.08595313 -0.14430037 -0.2109829 -0.21365012
0001b0 93 8d ec 3d 14 59 d2 3c 7d cb d9 3c 8e 6e f1 3c
       0.11550441 0.025677241 0.026586289 0.029471662
0001c0 92 73 8c bc 19 95 2b bc b8 68 68 3d 99 da 1f be
       -0.017144952 -0.010472559 0.056740493 -0.15610732
0001d0 93 30 99 3d d3 06 d6 3c 27 f0 04 bd 25 84 cf bd
       0.07479968 0.0261263 -0.03245559 -0.101326264
0001e0 16 7c 5a be 97 fa 0c 3e e0 d3 15 bd fe bf 6f bc
       -0.21336398 0.13767467 -0.036579013 -0.014633177
0001f0 55 7c a1 bd cb c8 32 3d 39 10 a7 3d 69 16 b5 bd
       -0.078850426 0.043648522 0.08157391 -0.08842165
000200 6e 0d 87 bd 1c 47 83 bd c2 d5 56 be 54 50 26 be
       -0.065943584 -0.064100474 -0.2097998 -0.1624158
000210 27 bd 02 bd 5d c9 a5 bd 86 00 c0 3d bb b8 73 3d
       -0.03191867 -0.080950476 0.093751 0.059502345
000220 4a 35 a5 bd de 1e db 3c a7 00 f2 3d 62 ac a6 bd
       -0.08066805 0.026748117 0.11816531 -0.08138348
000230 c8 d7 db 3d c5 99 ae 3d 77 3d e4 bc a4 e6 16 3e
       0.107345164 0.08525423 -0.02786134 0.1473642
000240 32 60 23 3e 72 c6 0d 3e 03 31 00 3e bd 69 03 bc
       0.15954664 0.13845232 0.12518696 -0.008020815
000250 32 18 ae 3b 2a 93 47 3e 16 e3 99 bd f1 92 98 3d
       0.005312943 0.19489732 -0.07514016 0.07449902
000260 45 78 af bd 70 d8 23 be d5 5a 17 3e f4 9f 74 3d
       -0.085678615 -0.16000533 0.14780743 0.059722856
000270 8c 0f d4 3b bd 08 f3 3c 17 6b 43 3e d2 0a cc 3c
       0.00647158 0.029667253 0.1908382 0.024907503
000280 7f ce 88 bd 5c 12 74 bc 2d 00 b7 bc 5b e4 ff 3d
       -0.06680011 -0.014896955 -0.022338951 0.12494727
000290 27 fe a0 3d c4 65 aa 3c 32 d7 66 3e 79 a8 c9 3a
       0.07860976 0.020800479 0.22543028 0.0015385292
0002a0 28 85 ea bd 5c d6 d6 bc 8f 3b 17 bd 80 a8 18 be
       -0.11451179 -0.026225261 -0.036922034 -0.14908028
0002b0 2e 46 28 bd 61 f9 04 bd a8 97 d0 3d d7 bc 86 3d
       -0.041082554 -0.03246439 0.10185176 0.06578987
0002c0 ba 87 a2 3c a8 42 af 3c 36 04 a7 3d 11 78 2a bd
       0.01984011 0.021394089 0.081551 -0.04161841
0002d0 76 a8 80 3d 96 bf 05 bd fe ba a9 bb 95 a1 81 3d
       0.062821314 -0.032653414 -0.005179762 0.063296475
0002e0 3c 2b a4 bd 15 98 3e bd fc b3 b6 3d 87 42 d7 3d
       -0.08016059 -0.046531755 0.08921048 0.10510736
0002f0 98 e5 8f be 74 e3 c4 3d 24 10 1a 3e d6 b6 9d 3d
       -0.28104854 0.09613696 0.1504522 0.07700889
000300 85 c6 89 3d ec 21 e8 bd c8 a0 2a 3e 1b f7 68 3c
       0.06727318 -0.11334595 0.16662896 0.014219071
000310 fc 88 b6 bd 87 4d ae 3d 40 b1 98 3d 35 92 14 3d
       -0.089128464 0.08510881 0.07455683 0.036272246
000320 ed d0 43 bd 0d 1f d9 3d ff 73 88 3d 43 dc 1f be
       -0.04780667 0.106016256 0.066627495 -0.15611367
000330 dd 73 c4 bc 58 59 87 bd 16 8b 80 bc f5 8f d4 3d
       -0.02398103 -0.06608838 -0.015691321 0.1037902
000340 a5 83 7c 3c 17 57 8f bd 45 ea 8c bb 99 39 12 be
       0.015412246 -0.06999033 -0.004300388 -0.14279784
000350 13 fa 19 be f2 76 15 be d4 54 70 3d 81 de 73 3e
       -0.15036802 -0.14596155 0.05867465 0.23815347
000360 7e 18 ae 3c fe 3c ad bc f3 be 34 3e 5d 46 2e 3e
       0.021251913 -0.021147247 0.17650966 0.17019029
000370 54 77 73 bc ca b8 dd bb 53 63 be bd cc 9f bd bd
       -0.014859993 -0.0067664133 -0.09296288 -0.092589945
000380 00 bd f2 bd 2b ac 3f be c4 98 80 bc d6 b0 c0 3d
       -0.11852455 -0.1871802 -0.015697844 0.09408729
000390 ba 2d d0 bc f5 5a 3b bd dc 8e b7 3c ce c7 fc 3d
       -0.02541243 -0.04574104 0.022406988 0.12342797
0003a0 f6 0a ef 3c fd b2 06 bd 72 70 12 3e a4 dc 4d 3e
       0.029180031 -0.03288554 0.14300707 0.20103699
0003b0 e9 6f 05 bd 15 94 25 3d 6e 53 80 bd 36 7d e1 3d
       -0.03257743 0.040424425 -0.06265913 0.1101021
0003c0 99 b9 e8 bd 9f 30 0d 3e 10 33 ae bc c1 fe 44 3d
       -0.11363525 0.13788079 -0.021264583 0.048094515
0003d0 47 f4 41 be d7 87 86 3b b9 a2 01 3e 15 44 59 bd
       -0.1894084 0.004105549 0.1265973 -0.053043444
0003e0 09 06 24 be 78 d2 09 3c 1a c1 08 be 4a a3 a0 be
       -0.16017927 0.008411996 -0.13354912 -0.3137458
0003f0 e4 4e f3 bd d3 6c ff 3c 6a bb b1 bc 8a 56 23 3d
       -0.118802816 0.031179821 -0.021695811 0.039877452

fc2.bias f4 [60]
000000 92 30 8d bd 18 54 2c 3d ba 8d 7f 3c f0 16 aa 3d
       -0.0689403 0.042072386 0.015597755 0.08305156
000010 f4 d8 11 bd 2d 67 9b 3d e5 a1 b1 3d 78 86 a7 3c
       -0.035607293 0.075880386 0.08673457 0.020449862
000020 cd 68 c1 bd 28 10 c2 3d 8b 23 09 3e 36 d3 05 be
       -0.09443817 0.09475738 0.13392465 -0.13068852
000030 d8 92 f0 bb ad b4 c2 bc db c8 0b bd b1 0a 03 3d
       -0.007341724 -0.023767794 -0.034127098 0.031992618
000040 28 55 b5 bd 64 d2 5c bd 50 c2 96 3d f1 e6 3d 3c
       -0.08854133 -0.05391158 0.07361281 0.011590705
000050 d1 1d 79 3a fa fe f5 bc 50 cd 22 bd 28 c8 9c bd
       0.0009503039 -0.030028809 -0.039746583 -0.07655364
000060 8a d2 0f bb 4d 7b 7a 3d b7 4d 3c 3c 02 2e 33 3d
       -0.002194556 0.061152745 0.011493138 0.04374505
000070 d6 d0 b7 bc 60 a5 cf 3d f2 23 d2 3d 8b c3 18 bd
       -0.022438448 0.10138965 0.10260762 -0.03729586
000080 7d ce 09 3e dd 16 73 3d 3b c9 36 bb d2 a6 42 bd
       0.13457675 0.059347976 -0.0027890939 -0.047522373
000090 17 bb 19 3d 9f ce c9 bd b7 b8 89 bd 67 fc 53 3b
       0.03753194 -0.09853863 -0.06724685 0.0032346488
0000a0 12 70 38 3d 00 c8 01 3e 4c ec 7f 3d 3c ef 87 bd
       0.045028754 0.1267395 0.06248121 -0.06637427
0000b0 68 a3 bd 3d 1b a4 4e 3d 89 a6 e4 3d f2 22 9a bd
       0.09259683 0.050449472 0.111645766 -0.075261965
0000c0 ad b0 1d 3d da 51 d6 3c 05 d8 84 3d 06 59 14 bc
       0.03849857 0.026162077 0.06486515 -0.009054428
0000d0 c4 59 55 3c 3d be 1f 3d ee 1c 78 bd 73 e0 12 3e
       0.01302189 0.038999785 -0.060574464 0.14343433
0000e0 10 60 4d bb 3e 44 e8 bc 41 85 22 3d 58 86 fa bb
       -0.0031337775 -0.028352853 0.039677862 -0.0076454096

out.weight f4 [10, 60]
000000 9e 7a 1f 3d e0 aa 26 3d 5c 35 cc 3d ac c0 9a bd
       0.038935296 0.040690303 0.09971115 -0.075562805
000010 88 a5 ac be 89 f6 31 3e 93 24 9c bd 4e 0e 46 3e
       -0.3372004 0.17379202 -0.076241635 0.19341394
000020 22 44 d5 be c3 a1 4b be 09 e7 fd 3d e5 83 d1 3c
       -0.41653544 -0.19885926 0.12397582 0.025575588
000030 a0 2d 6b 3c 61 36 1a 3e 7b 2b 69 be d3 2a ac 3d
       0.01435414 0.15059806 -0.22770493 0.084066056
000040 17 40 93 3d 31 5a 3f 3d e8 a3 bb bd c3 c6 74 bd
       0.071899585 0.046716873 -0.09162122 -0.059759866
000050 67 6b ca be 43 53 ca 3d 24 2f 32 3d 29 ab 21 be
       -0.39535066 0.09879162 0.043501988 -0.15787949
000060 20 64 05 3d 69 95 b0 be 26 dc df be 18 20 24 be
       0.03256619 -0.3448899 -0.43722647 -0.16027868
000070 6f b9 00 3e 07 78 28 3e 0c 9f 16 3d 4f 0e d9 bd
       0.12570737 0.16452037 0.036772773 -0.10598432
000080 10 b8 20 bd cd 96 d8 3d 01 12 82 3b ef cd fb bd
       -0.039238036 0.10575638 0.0039694314 -0.12295138
000090 8c c5 04 3d 53 bb 13 be fb ea 29 3e d8 9f d4 3d
       0.032414958 -0.14426927 0.16593544 0.1038205
0000a0 3c e0 6a 3d ab 49 bb 3c 6c db 4b 3d e0 69 53 be
       0.057342753 0.022862276 0.049769804 -0.20645857
0000b0 1c 67 39 3e 8b 8c 4c be 2d fe f0 bd 1b d5 4c be
       0.1810574 -0.19975488 -0.1176723 -0.20003168
0000c0 6d 44 c0 be db 90 e0 3c d2 90 96 bd 0b 1d 3b 3e
       -0.37552205 0.027412822 -0.07351841 0.18272798
0000d0 31 2f c3 bc 07 55 16 be f6 c2 3a bd b9 8b 52 3e
       -0.023826214 -0.14680873 -0.045596085 0.20561112
0000e0 a6 bc d6 3d f2 bd 69 3e 74 47 cb 3d 68 6d e9 3d
       0.104852006 0.22826365 0.09925738 0.11397821
0000f0 8d 0e 50 be d7 b3 cd bd 52 5d ac be be 67 00 bd
       -0.2031805 -0.10044067 -0.33664948 -0.031348936
000100 b0 92 0b be 4f 7e 83 3e f2 42 36 3e de d2 f1 3d
       -0.13630176 0.25682303 0.17798975 0.11807798
000110 ae 1c 8a bc 30 9c e9 bd 86 75 c1 bd 0b 14 1c 3e
       -0.016859379 -0.114067435 -0.09446244 0.15242021
000120 b9 0d fd bd 04 8e b5 3d 7a 96 57 bd 59 0a 90 bd
       -0.12356133 0.08864978 -0.05263374 -0.07033224
000130 6e 21 04 be 38 94 3d be d0 05 71 be 05 14 40 3e
       -0.12903377 -0.18513572 -0.23537374 0.18757637
000140 6e 59 3a 3e 31 0a 04 3e 32 04 90 3d 1c a1 74 3d
       0.18198177 0.12894513 0.0703205 0.05972396
000150 b4 e5 1f be 43 ea 3a 3e 7a 5c 72 bd 8a d2 f8 3d
       -0.15614969 0.18253426 -0.059170224 0.12149532
000160 0b 7e 1c 3e 33 8c 87 be a7 91 a3 bc 76 52 00 3e
       0.15282457 -0.2647415 -0.019966913 0.12531456
000170 70 cc 91 bd e8 4c bb be c7 5f bf 3d 2f b5 18 3c
       -0.071190715 -0.36582112 0.0934444 0.009320541
000180 83 23 40 3e 26 4a 66 bd ce c0 2d be 4d 63 f1 3d
       0.18763547 -0.056223057 -0.1696808 0.11786518
000190 b8 17 bb 3d d4 c0 48 be 38 2e 29 3d a8 2a 84 be
       0.09135383 -0.19604808 0.041303843 -0.25813794
0001a0 2a 0f c4 3d 24 06 68 be 0b c8 16 be 01 a9 a7 bd
       0.09573205 -0.22658592 -0.14724748 -0.08186532
0001b0 a7 8b 33 3e 8c 3f f9 3c 9a 28 da 3d 7d 49 08 3e
       0.17533742 0.03042581 0.106522754 0.13309284
0001c0 b6 1d 44 3d 25 44 1e 3e 78 ba 9d bc 64 69 53 3d
       0.047879897 0.15455683 -0.019253954 0.05161418
0001d0 94 c9 7e bd 80 0b 45 be 5d 3d fd bd a0 79 fa bd
       -0.06220396 -0.19242668 -0.1236522 -0.122302294
0001e0 47 96 96 be cf 11 41 3e 31 ee fe 3d c3 41 11 be
       -0.29411528 0.1885445 0.12447775 -0.14185242
0001f0 9e 34 d5 3d bc d3 bf 3c 8c bb 0a 3e 12 74 be 3d
       0.104104266 0.023416393 0.13548106 0.092994824
000200 8a 64 03 3c ef 7a 24 3e b4 a9 8f bd e8 7e 8d 3d
       0.008019576 0.1606252 -0.0701479 0.06908971
000210 9f f0 3a 3e 66 c3 e1 be 30 b0 96 bd 62 ea 9a be
       0.18255852 -0.4409439 -0.07357824 -0.30256945
000220 c3 8f 2c 3e de 02 76 be f1 9c 88 bd 77 fe af bc
       0.16851716 -0.24024531 -0.06670559 -0.021483643
000230 44 f7 59 be f7 62 9e bb 73 d2 4d 3d 0a e3 dd 3d
       -0.2128573 -0.004833575 0.05024953 0.1083432
000240 a8 2b d3 3d a3 72 54 3e 99 33 6e be 36 4e 86 bd
       0.10311061 0.20746855 -0.2326187 -0.06557886
000250 ac 6b b0 3d 13 22 88 3d 44 09 d2 3c 7c bc 41 be
       0.08614287 0.06647124 0.025639184 -0.18919557
000260 35 20 79 bd 64 d7 ef bd 2f 8c d1 3d e8 f3 ec 3d
       -0.06082173 -0.117110044 0.10231816 0.11569959
000270 ff f2 1c 3e e7 c9 cb 3c 52 30 d1 3d 58 91 cd bd
       0.1532707 0.024876548 0.102142945 -0.10037488
000280 4c be 8b 3d ce 0c ed be 43 f2 1b 3d 5c e8 fd bd
       0.068234056 -0.46298832 0.038072836 -0.12397835
000290 6a 4c 25 be 7c 22 33 3e d9 7f df 3d 58 af 87 3d
       -0.16142431 0.17493623 0.10913057 0.06625241
0002a0 e5 fe 3b be 4d 4f b0 3a 4d 5d 58 be 78 3a 4d be
       -0.18358953 0.0013451368 -0.21129341 -0.20041835
0002b0 80 45 2b 3b c9 3d d2 3d f8 cc 29 bd ff 4f 59 be
       0.0026133955 0.10265691 -0.04145524 -0.21221922
0002c0 fa 9b 01 3e a1 76 40 be f0 51 0b 3c 0b 5c 7f 3d
       0.12657157 -0.18795253 0.008503422 0.06234364
0002d0 91 6c 30 3e 8e 85 4e bd 80 f1 ae bc bd f1 32 bd
       0.17228915 -0.050420336 -0.02135539 -0.04368757
0002e0 9e ea 3b 3e 49 68 33 be 03 ae fb 3d 7d 6d b2 bd
       0.18351218 -0.1752025 0.122890495 -0.087122895
0002f0 a6 a8 1a 3e ed aa b7 bd a1 19 1b 3d af 4b 8f be
       0.15103397 -0.089681484 0.03786624 -0.2798743
000300 b1 31 8a be da 31 b7 be ac 0e c2 be 45 d3 0f 3c
       -0.26991037 -0.3578022 -0.3790182 0.008778398
000310 4c ed 35 3e 52 88 17 3e 43 ea 9b 3d df de f4 3d
       0.17766303 0.14798096 0.07613041 0.11956572
000320 09 9e 62 3e a1 33 15 3c 5c 58 ff 3c f9 a0 ad 3d
       0.22130598 0.009106548 0.031170063 0.08477969
000330 00 ee 06 3e 00 ff 17 be f4 81 5d 3e 1e a3 26 be
       0.13176727 -0.14843369 0.21631604 -0.16273162
000340 8d 10 ec 3d 76 f7 b7 be 2d 60 ac 3d be 6c 01 be
       0.11526594 -0.35930985 0.084167816 -0.12639138
000350 b8 4e f5 3d fe f3 cb 3d 18 94 27 be 77 5c 6f bd
       0.11977905 0.09958647 -0.16365087 -0.05843779
000360 db 78 08 be a8 91 81 bd 80 5a 92 bb e4 0c f2 3d
       -0.13327353 -0.0632661 -0.004466355 0.11818865
000370 eb 76 53 be 05 eb a5 bd 66 39 99 bd ee 23 1a be
       -0.20650832 -0.08101467 -0.07481651 -0.15052769
000380 b9 3c a8 3c 84 e0 5a bd 81 eb 62 be 5d d9 07 3e
       0.020536767 -0.05343677 -0.2216015 0.13266511
000390 31 66 99 3d 61 16 81 be ca 84 73 3c 34 7b 8e be
       0.074901946 -0.25212386 0.014863202 -0.27828372
0003a0 bd 8a 83 bd 3d e4 b0 3d d4 a0 ca bd 38 38 2c bd
       -0.064229466 0.08637283 -0.09893957 -0.042045802
0003b0 6d f0 e7 bd 2c 6a 3f 3e 17 ea 27 3e 59 01 9f bd
       -0.113251545 0.18692845 0.16397892 -0.07763929
0003c0 82 44 40 3d 35 27 ca 3d f8 ad 12 3e a6 01 48 be
       0.046940334 0.098707594 0.14324176 -0.19531879
0003d0 87 79 19 3d 3e 68 9c bd 63 65 3c be ac ff 8d be
       0.037469413 -0.0763707 -0.18398051 -0.27734125
0003e0 f1 ff 8b bd 2e d3 30 3e 57 85 88 be 52 e6 28 be
       -0.06835926 0.17268059 -0.2666423 -0.1649411
0003f0 9f 90 21 3e e4 01 33 3e 4b 1f 49 3e a6 74 5a 3e
       0.15777825 0.1748119 0.19640844 0.2133356

out.bias f4 [10]
000000 36 1f 2f 3e 22 86 22 bc 6f 9e 1c bc a0 38 98 3c
       0.1710175 -0.009919675 -0.009559258 0.018581688
000010 a1 4e 2c 3d dd 20 7e 3d 82 0e 8e 3d 18 9e 2c bd
       0.042067174 0.06204306 0.06936361 -0.042142957
000020 6c b4 03 3e a0 58 25 bd
       0.12861794 -0.040367723
